Chignolin/OPES_Flooding/chignolin3_deeptica.pt (torch, 35040 bytes, 12 tensors)

mean f4 [45]
00000000: d1a0 c43e 489e 283f 14e7 c33e bae5 743f
00000010: bee5 213f 547a c63e a295 993f 9caf 673f
00000020: 3ed0 123f a655 c43e 57be 993f 8320 6b3f
00000030: 3c20 203f 741f 153f 3095 c43e f478 8e3f
00000040: dfe3 4b3f db91 213f cde3 0e3f aff3 133f
00000050: 999a c43e 99e7 753f 55a0 383f 94d1 253f
00000060: 22bc 433f 13bd 4e3f ef24 103f 9f78 c33e
00000070: ecbb 423f 9d2f 223f 0f9d 403f 29fa 6d3f
00000080: 45f1 873f 6047 603f c1ad 2b3f 3b9d c33e
00000090: 0656 373f 2c30 483f ec09 623f f534 913f
000000a0: 9f63 9e3f f8fa 873f 7fce 723f 50f3 223f
000000b0: fcef c33e
0.38403943 0.6586652 0.38262236 0.95663035 0.63241184 0.38765204 1.1998789 0.90502334
0.57349 0.38346595 1.2011212 0.91846484 0.62549186 0.5825112 0.3839507 1.1130662
0.7964458 0.6311318 0.55816346 0.57793707 0.383992 0.96056515 0.7211965 0.64772916
0.7645894 0.80757254 0.56306356 0.38177964 0.76067996 0.633539 0.7523965 0.9295984
1.0620505 0.8760891 0.67062 0.38205895 0.71615636 0.78198504 0.8829639 1.1344286
1.2374152 1.0623465 0.9484634 0.63652515 0.3826903

range f4 [45]
00000000: dbbe c73b af63 3b3d c1f7 c53b 5e91 653d
00000010: 7e0c ed3c 9fa1 cb3b 8f18 c13d 572e d93c
00000020: 02ba 1d3d 1f48 c63b b432 f93d 3944 f33d
00000030: c1de eb3d 23dc 0a3d 8826 c53b 0d2e 493e
00000040: 4b5f 763e 4fa0 493e 9204 0c3e 59f4 1e3d
00000050: e9cf c53b c68f 913e eb55 a13e bea3 793e
00000060: 9609 ff3d a4bd 923d 940b 133d 041d c73b
00000070: ac4a cd3e 9416 d13e 20a4 863e 5bc4 0b3e
00000080: 054b c43d eba0 8a3d 9b2e 3a3d d2fb c63b
00000090: e8ab e93e 4b9e ce3e fc8d 953e 878d 173e
000000a0: 8b96 ec3d 4ad1 c73d b2b2 b03d 3846 133d
000000b0: 0a64 c63b
0.00609575 0.045749363 0.0060414975 0.056046836 0.02893662 0.006214335 0.09428512 0.026511354
0.03850747 0.006051078 0.12167874 0.11878247 0.11517096 0.033901345 0.006016556 0.19646473
0.24059789 0.19690059 0.13673618 0.038807247 0.0060367477 0.28430003 0.31510863 0.24378869
0.12453 0.07165077 0.035899714 0.006076457 0.40096033 0.40837538 0.26297092 0.13649122
0.09584621 0.06768974 0.045454603 0.0060725 0.45638967 0.40355143 0.29209888 0.14800082
0.11552151 0.097567156 0.086278334 0.035955638 0.006054406

weight f4 [30, 45]
00000000: a490 7b3d 073b 1a3e 2942 f63b 6d7f dd3d
00000010: 4d18 acbc 19ba 0b3d e621 4dbd 24d5 eb3d
00000020: 4949 2d3e 654d a9bd b968 433e 3970 673d
00000030: 2fd0 e43d e2b0 7ebc 6dcf c63d 2bb6 24bd
00000040: abf8 003e fa55 96bc b3a8 71bd 21be d6bd
00000050: ca41 a9bc be89 d5bc e92c 40bd 4bf9 8e3d
00000060: 088b 1cbe 3574 c3bd 2e1d a8bb 1851 8dbd
00000070: c6cb be3b 2927 09be 9637 d93d cce0 1cbe
00000080: 110b c53d 9fc9 363d 4ed1 043c 45dd 463d
00000090: 61e3 103d 6883 fd3d 8733 1ebc 928d f2bd
000000a0: 88d7 91bc 55cd 2bbd ff29 733d 63bd 093e
000000b0: 1bb0 0f3d 1490 46bd 3c76 01bd d0ba 823d
000000c0: 33fa f93d 6d54 e4bd 7172 e6bd 995d b6bc
000000d0: 9921 89bd 6b74 8c3d 65ae 523c c449 043e
000000e0: 60ee d73c bd47 753c fc3c 363e a500 69bd
000000f0: be52 fdbc 9891 46be e745 683c 38b1 febd
00000100: 7d91 cd3d 5627 26bd f388 be3d 511b 1cbe
00000110: b364 f3bd dd77 76bd 6dc9 473e 9915 93bb
00000120: af7a ea3d 6496 3cbe 57f3 72be 19e8 48be
00000130: 00e8 d8bd c28f f63d 293d b23d 7c1f 613d
00000140: 8ba4 3cbd 1e04 64be 1e2d 12bd 20e0 27be
00000150: 28ef 1f3e 2862 993c 9946 ef3c 2b60 70bc
00000160: 6528 91bd 3db6 723d 9f35 1b3d 2219 adbd
00000170: acc3 343d f25f 9d3d 63c9 23be eda4 1bbd
00000180: ae38 0e3e 1db8 aabc 4b8c cbbd 2a85 03be
00000190: 344d 0abe 6598 0fbc 0588 38bd f3ce 6e3c
000001a0: 0858 e8b9 9ab4 f7bd b12a 30be 1420 83bd
000001b0: 4a62 44be d4f0 2fbd 2508 ad3d e817 c63b
000001c0: 7936 003c ff15 04be 9757 b6bd 5e2a c13c
000001d0: eebb fb3b 4c8e f0bd fd8d b5bd db70 13be
000001e0: d3c6 71bd f984 0bbe 32a6 c5bc 2e76 9fbd
000001f0: b0e6 3abe 059e 53bd 028a e1bd f41b 3cbe
00000200: ec1e 913d b80a d6bd 2e00 d53d 8a1d 7a3d
00000210: 777a edbd cb92 163e 751d 94bd f468 acbd
00000220: b88e 00be 15ee 07be e846 84bc 77e5 963b
00000230: 31da ae3d 7351 2abe 07cb 633d f95a d3bd
00000240: 91e9 70bc 797a 663d 51b6 ed3d 0f85 153e
00000250: 8c59 af3d cc55 ecbd 8cf2 923c 10ec 97bd
00000260: 167f 46bd 3ee9 ecbd 30b9 1a3e c59b 73bd
00000270: 3485 ad3d 77c5 943d 5447 3e3d 5ea0 f6bd
00000280: 6ec8 af3d f5e1 3e3c df48 c43a a5d6 bdbd
00000290: e50f d83d 8102 593d 5fa3 8dbd ea4f e33d
000002a0: a6b3 8a3c ed74 d13c 7ebd 76bd f103 65bc
000002b0: b8d9 093e 2ca6 94bc 8d0a b0bd 8d61 83bd
000002c0: 4a08 0abe 60c4 f23d cfef ae3d 01cd 9abd
000002d0: 165d 003d 9b6e 703d 3a26 bebc 0f16 aabd
000002e0: 9d0f cb3d 8125 823d 1623 2e3d c024 2fba
000002f0: d873 39bd bbfc 373d 96ef 8ebd 60f3 05bd
00000300: bdfe 8c3d 7481 2a3e ca76 273c 7f6e 92bd
00000310: bbd2 2e3c 5929 1fbd d048 793d a152 c03c
00000320: cd74 0abe 85f2 e4bd 407b d93d 852c c43c
00000330: 297f 00bd 6ed3 b7bd 79b7 36bd 23ec ecbd
00000340: d32b 83bd 146c 4f3d 1d48 ae3d abd3 0d3d
00000350: 9946 e5bd c2c4 75bd 9075 223c d933 b63d
00000360: 3723 163d daf5 58bd d126 3a3d 28ee 21be
00000370: 018e debd 6a5c e33d b891 19be aa98 59bd
00000380: 729a 5cbd ece0 c93b 6bb4 0c3e 9a30 843d
00000390: 2ba1 b8bd 45e2 6bbd 53f7 54bd 1075 053d
000003a0: f6a3 153e f393 aabc 6b5f 503d f530 653c
000003b0: 16d9 713d d4d9 7fbd bb27 b1bd 4ccd a43b
000003c0: f40a a63c 1a62 05be 2e1c c6bd df8e 3dbe
000003d0: ec4a 92bd 389e c5bd 1ce5 45be 22cc 7fbd
000003e0: b0db 1cbe 3dad 89bd 4cfe b0bd 28bc 38be
000003f0: 9bed 243d e5c1 b6bd f872 e8bd d2aa 14be
0.061417237 0.1506158 0.007515211 0.1081532 -0.021007681 0.034113023 -0.050081156 0.11515263
0.16922487 -0.08266715 0.19082917 0.05650351 0.1117252 -0.015545102 0.09707532 -0.04021279
0.1259486 -0.018351544 -0.058998775 -0.10485483 -0.020661253 -0.026066657 -0.04691783 0.069811426
-0.15287411 -0.09543649 -0.0051304316 -0.06900233 0.0058226315 -0.13393845 0.10606305 -0.15320128
0.096212514 0.044625875 0.008106543 0.048550863 0.035373095 0.123785794 -0.00965584 -0.11843409
-0.017802969 -0.041943867 0.059366222 0.13451152 0.035080057 -0.048477247 -0.031606898 0.06383288
0.12205925 -0.111489154 -0.11252297 -0.022261428 -0.06695861 0.068581425 0.012858962 0.12918764
0.026358783 0.014970717 0.17796701 -0.05688538 -0.030923244 -0.19391477 0.014176822 -0.124361455
0.10037515 -0.040564857 0.09303465 -0.15244795 -0.11884441 -0.060172904 0.19510432 -0.0044886586
0.11449181 -0.18416744 -0.2372564 -0.19619788 -0.105911255 0.120391384 0.087030716 0.054961666
-0.046055358 -0.22267196 -0.03568756 -0.1639409 0.15618575 0.018723562 0.029208468 -0.014671366
-0.07087783 0.059255827 0.037892934 -0.08452059 0.04413192 0.07684316 -0.15994792 -0.037999082
0.13888809 -0.020839745 -0.09938868 -0.12843767 -0.13506013 -0.008764361 -0.045051593 0.014575708
-0.00044316077 -0.12094994 -0.17203785 -0.06402603 -0.1917812 -0.04295428 0.08448819 0.0060453303
0.007825487 -0.12899016 -0.08903425 0.023579773 0.007682315 -0.11745891 -0.08864973 -0.1439852
-0.059027504 -0.13624944 -0.0241271 -0.07786213 -0.18252063 -0.05166437 -0.11012651 -0.18370038
0.07085976 -0.10451263 0.10400425 0.061063327 -0.11595624 0.14704435 -0.07232181 -0.08418456
-0.12554443 -0.13274415 -0.016147092 0.004604991 0.085377105 -0.16632633 0.055613544 -0.10320086
-0.014704124 0.056269143 0.1160704 0.14601539 0.085620016 -0.11539802 0.017937921 -0.07418072
-0.048461042 -0.11567925 0.15109706 -0.059474725 0.08472672 0.07264226 0.046454743 -0.12042306
0.08583151 0.011650552 0.001497533 -0.09269456 0.10549907 0.052980904 -0.06915926 0.11099227
0.016931366 0.02556845 -0.060239308 -0.0139779905 0.1346196 -0.018145643 -0.085957624 -0.06415091
-0.13479725 0.11853862 0.085418336 -0.07558633 0.031338774 0.05869923 -0.023211587 -0.083049886
0.09915087 0.063548096 0.04251393 -0.00066811964 -0.045276493 0.044918757 -0.06979291 -0.032702804
0.06884525 0.16650945 0.010221193 -0.07149982 0.010670359 -0.03885779 0.060860455 0.0234769
-0.13521118 -0.111790694 0.10619211 0.02394701 -0.03137127 -0.08975874 -0.044608567 -0.11568477
-0.06404843 0.05064018 0.08509848 0.03462569 -0.11195106 -0.060002096 0.009915724 0.08896608
0.036654677 -0.052968837 0.045447174 -0.15813506 -0.10866929 0.11101611 -0.14996994 -0.053124107
-0.053858228 0.006160846 0.13740699 0.064545825 -0.09015115 -0.057588834 -0.05199368 0.032582343
0.14613327 -0.0208225 0.050872248 0.013988723 0.05904492 -0.062463596 -0.08650156 0.005029356
0.020268895 -0.13025704 -0.096733436 -0.18511532 -0.071431965 -0.096493185 -0.1932568 -0.062450536
-0.15318179 -0.06722496 -0.08642253 -0.18040526 0.04026566 -0.08923701 -0.113500535 -0.14518288

bias f4 [30]
00000000: d717 f43c 23a7 fd3c 7bd3 e03d 63a7 af3c
00000010: 1567 e13d c4fc 553e 0e07 32be 444c 183d
00000020: 0fbe c6bd 841e 3cbd b0c2 983d 6617 883d
00000030: 441b 53bd 7723 c73d fcf9 723e d0ea b5bd
00000040: 8d37 81be 1194 eebd a4d2 abbc 5802 733e
00000050: bd88 04bd 702e 4c3e 26fe 42be 92e3 41be
00000060: 5441 0d3d f86d 853c b0a5 6b3e 6cba fd3d
00000070: 42c5 403e 26c0 913d
0.029796524 0.030963486 0.10977837 0.02144212 0.110059895 0.20897204 -0.17385504 0.037182108
-0.097042195 -0.04592754 0.07459009 0.06645088 -0.051539674 0.09723561 0.23728174 -0.088826776
-0.25237694 -0.11649335 -0.020974465 0.23731363 -0.032356966 0.1993959 -0.19042262 -0.18934467
0.03448613 0.016287789 0.23012424 0.12389073 0.18825248 0.071167275

weight f4 [30, 30]
00000000: 584d 013e 4758 6fbe c92c 083e e24e efbd
00000010: 6a03 1f3e b12b 28bd dd23 1fbe ba25 293c
00000020: 5b26 35bd 4c8d 3ebe f53e 84bd b0a4 9a3b
00000030: dab3 ab3d 010d 81bd 9e20 a63d 1882 263c
00000040: 2a5a 053b dd4a 313d be60 c9bd f772 0abe
00000050: a701 63bd 2355 1ebe d218 86bd f3c8 ab3c
00000060: e327 1ebe dc66 33bc 3562 9cbb dc91 05bc
00000070: a2c6 e9bd 7e15 083d 30f1 29bd c02e 2b3c
00000080: 91bd 223d 2a3b f7bd fb9a 0dbd f8fa 31bd
00000090: 5309 91bd d1d7 303c 2add 543d 7575 d03d
000000a0: fe5e 583d 2b77 1a3e 823c 4ebd 4246 9fbd
000000b0: b78d 433d bfa3 7ebd a9ef ac3c 7bca cfbc
000000c0: c426 ffbc b038 81bd 35df 3a3e ed02 073e
000000d0: fcba 883d 2d39 263e 9809 34be f48d 8a3d
000000e0: 93ea d33d da70 a43d 72f7 eabd 1c36 c73d
000000f0: 2db9 07be 3aa3 373d a9b4 5dbb 24f7 b4bd
00000100: 22db 51be 948c f4bd 08a4 3e3d cd11 88bc
00000110: efcc 13be d481 e3bd ec37 1dbd 6d57 40be
00000120: 5055 163e eac6 3d3e bb88 2dbd fdd6 63be
00000130: e1c3 343d 530a 5d3c 52f6 da3d 0347 10be
00000140: 2376 36be 635f c43d 4c37 92bc 1cc4 cebd
00000150: 371a 09bd 0f06 2cbe c709 cd3d 522e 2dbd
00000160: 5929 273e 8286 3e3e 5c4d 123c 5a4a ba3d
00000170: e54b a7bc a0a1 ff3d 6a83 2ebe 4449 fa3d
00000180: 4d3a 94bd a83f 353d 4ff1 56bd aa8a b5bd
00000190: 67f8 76bb 6a41 383e f7d7 82bd 3121 babd
000001a0: fc16 74bd 6497 68bd 2f40 6d3d 1a49 cd3d
000001b0: beec 46bd 9b33 123e 93f3 99bd 4cfb 15be
000001c0: 71c2 0bbe b226 e5bd 72fb ecbd 5b74 13be
000001d0: c36f 16be 90a9 bd3b a686 be3d 3cf7 313e
000001e0: ea5c 0d3e d012 febc 6148 303d 2e63 eebd
000001f0: 1054 903d 37a0 52be 47e9 fd3d 3f24 e83d
00000200: a3a6 5e3d bf14 943d 226f abbd 8787 e83d
00000210: 8432 aa3d e197 d43d 92f3 153d 674c 843d
00000220: 47dc ee3d 69fe cf3d 298b 2a3e fed3 53bd
00000230: 3008 f53d 4856 983d f742 1d3e 4a55 5e3e
00000240: 8ad3 ed3c 7cae edbd 051d ea3b 45e0 3c3d
00000250: d610 093d 7f7e 1fbd c4da 0d3e 7f24 823d
00000260: 5731 06be feee 323c e7a8 c2bc 0950 11be
00000270: 91c0 2d3d 6c39 4fbc da2e bbbd c693 94bd
00000280: f325 9ebd e2a8 173e 3669 c43c 16a3 333e
00000290: baac ec3c ec85 543a dcaf a83d 6581 e23c
000002a0: 4411 ffbd 0a04 e1bd 7d01 29bd 0235 173d
000002b0: 9228 a13d 882d eb3d 4a3a 1d3e 477b 183d
000002c0: ca8f 1ebd a888 0abe 29eb 13be ded8 9dbd
000002d0: fce3 893d c447 a13d 4152 153e f950 74bd
000002e0: b4ad 16bc 9884 97bd a327 13bc 786e a13d
000002f0: ea8f 1fbd 42a6 853c ff65 4e3d c84b 9e3d
00000300: feea d4bc faa3 fbbd 114c 8a3d 5b47 3abd
00000310: 00d1 d2bd 0611 d53d 9aee 04bc 3e12 d9bc
00000320: ac46 b0bd ce5b 06bb c583 28be 98a6 4d3d
00000330: 8851 1cbc 4628 873d 72f7 1c3d f905 c53c
00000340: c834 693d 396e 0c3e 1211 14be 1b3d b13d
00000350: 48f6 6f3d ad05 d5bd 8c4f 713d 6ac3 0fbe
00000360: 718b 29bd 8fe5 19be cef7 55be 1f81 f03d
00000370: 7d46 0bbe fd79 9d3d a5c5 68be 44f6 8fbc
00000380: ab6c 923d 01d3 c13d cf38 d8bd 0479 a63d
00000390: 3c2f b03c 7c7c ac3d 85db 813a 7f70 e83d
000003a0: d0f4 11be 8093 3fbe fd93 103e 7aee 3dbe
000003b0: 28fc 6c3c 6047 aabc b168 3e3e b837 0cbd
000003c0: 13dc f9bd 4eed 16bd 618d a03d 1f36 533d
000003d0: 88c2 043e ca3c 733c 3a0b 903d f6bf 62be
000003e0: 576e 1f3e fd12 a23d dfa8 0a3c 4211 f2bd
000003f0: 4a43 0ebd 7288 4e3d 4742 29be 938c 22be
0.1262716 -0.23373519 0.13298334 -0.116849676 0.15528646 -0.041057292 -0.15541025 0.010323936
-0.04422603 -0.18608588 -0.064573206 0.0047193393 0.08383913 -0.063013084 0.0811169 0.010162853
0.0020347931 0.043284286 -0.09832905 -0.13520418 -0.055421498 -0.15462165 -0.06547703 0.020969843
-0.15444903 -0.010949817 -0.0047724494 -0.008152451 -0.11414839 0.03322362 -0.04148978 0.010448158
0.039731566 -0.120718315 -0.03457163 -0.043452233 -0.070818566 0.010793642 0.05196873 0.10178653
0.052824967 0.15084521 -0.050350673 -0.077770725 0.04774257 -0.06216788 0.021110373 -0.025365105
-0.031146415 -0.063096404 0.18249209 0.1318471 0.066762894 0.16232748 -0.17581785 0.06765357
0.10347476 0.08029337 -0.11472978 0.097271174 -0.13254233 0.0448334 -0.0033829606 -0.08836201
-0.20493749 -0.11940876 0.04654315 -0.01661005 -0.14433645 -0.11108747 -0.03838341 -0.1878335
0.14680982 0.18532911 -0.042366724 -0.2224998 0.044132117 0.013491231 0.10691513 -0.14089589
-0.17818503 0.09588506 -0.017848633 -0.10095999 -0.033472266 -0.16799186 0.100116305 -0.042280503
0.16324367 0.18605998 0.008929577 0.09096213 -0.020421932 0.124819994 -0.17042318 0.122210056
-0.072376825 0.04425016 -0.052476224 -0.08864339 -0.003768468 0.17993703 -0.06388848 -0.09088362
-0.059592232 -0.056785002 0.05792254 0.10023709 -0.04856562 0.14277498 -0.07517161 -0.14646643
-0.13648392 -0.11189021 -0.11571397 -0.14399855 -0.14691071 0.0057880357 0.09303026 0.17379469
0.13804975 -0.03101483 0.043037776 -0.11640011 0.07047284 -0.2056893 0.1239801 0.113350384
0.054358136 0.072305195 -0.08370806 0.11353975 0.08310416 0.10380531 0.03660924 0.06459885
0.11663108 0.10155947 0.16654648 -0.051715843 0.11964452 0.07438332 0.15357576 0.21712223
0.029031534 -0.11605546 0.0071445727 0.046112318 0.03346332 -0.038938995 0.13852984 0.06354617
-0.13104759 0.010921238 -0.02376218 -0.14190687 0.042419974 -0.012647968 -0.091397956 -0.07254748
-0.07722082 0.14810517 0.02397595 0.17542681 0.028890956 0.0008107114 0.082366675 0.02764959
-0.12454465 -0.109870985 -0.041261185 0.036915787 0.07869066 0.11483294 0.15354267 0.03722694
-0.038711347 -0.13528693 -0.14445175 -0.0770738 0.06732938 0.07875016 0.14582159 -0.059647534
-0.0091966875 -0.07398337 -0.008981618 0.07882398 -0.038955607 0.01631463 0.05039024 0.07729298
-0.02599096 -0.122871354 0.0675279 -0.045478206 -0.1029377 0.104036376 -0.008113528 -0.026497956
-0.086072296 -0.0020501497 -0.16456516 0.050207704 -0.009540923 0.065994784 0.03832192 0.0240507
0.0569351 0.13713922 -0.14459637 0.08654233 0.05858448 -0.10401473 0.058913752 -0.14039388
-0.041392747 -0.15028976 -0.20895311 0.11743378 -0.13601108 0.07689283 -0.22731645 -0.017573483
0.07149633 0.09464074 -0.105577104 0.08128551 0.021506898 0.08422181 0.0009907341 0.11349582
-0.14253545 -0.1870861 0.14118953 -0.18548003 0.014464416 -0.020785987 0.18594624 -0.034232825
-0.12200179 -0.036847405 0.07839466 0.051565286 0.12964833 0.014846036 0.07033391 -0.2214354
0.15569435 0.07913778 0.008463114 -0.11819698 -0.03473214 0.050423093 -0.16529189 -0.15873937

bias f4 [30]
00000000: 1602 0ebe 8fc3 05be 8355 31be 7e59 e03c
00000010: 3ccb f03c 2526 fbbd 699c ff3d b12f 28bd
00000020: 01ed b0bd 1071 193e 0f0a 153e 604f 3cbd
00000030: 7ab0 0ebe 71d5 12be e85e 0b3d e4b8 82be
00000040: 4fab a83d a7b8 94bd 5df1 a9be 4a16 1abe
00000050: 244a b7bd e4fd 1bbc 3e4b 48bd 4d1c 00be
00000060: af6a 5fbc 9dfe 27be a862 fcbd f981 08be
00000070: ea18 23bd 1bb3 253e
-0.13867983 -0.13062881 -0.17317776 0.027386423 0.029393785 -0.12263135 0.12481005 -0.041061107
-0.08638955 0.14984536 0.14554618 -0.045974135 -0.13934508 -0.14339234 0.034026057 -0.25531685
0.082357995 -0.07261782 -0.33191958 -0.15047565 -0.08949688 -0.009520981 -0.04889988 -0.12510796
-0.013636275 -0.16405721 -0.12323505 -0.1333083 -0.03981868 0.16181605

weight f4 [5, 30]
00000000: 86aa 7f3d 9259 18bd 2ad5 183d e95e 423d
00000010: 1eff b1bc 01ce fcbd be51 02be fd09 14be
00000020: 525d bebc 04e1 3fbe ddcd 73bc e73f 80bd
00000030: c764 233e 97f8 293e 899e da3d 79d2 b6bd
00000040: 0c57 57bd 4867 fe3c 95fb 21be 3671 8fbd
00000050: 3bf0 77bc ae5d 69bd a58d 6bbe 2457 b73d
00000060: d0b2 e43d 7d05 87bd e887 803d faaf 08bd
00000070: 0aaa 0bbc c980 973b 9e8a 1f3e c1f5 1b3d
00000080: e09c 04be 8eb7 1abd a19a c13d fb0b 3f3d
00000090: f34b 33bb 41ad 04bd 9f5a 83bd 30e2 15bd
000000a0: b9bf cbbd 9785 1b3d 3fef 443d f392 173e
000000b0: 0694 27bd d42d 34bd 86bd dc3d 4302 9f3d
000000c0: 0da0 5c3c 80e0 8f3d f49b ddbc 7e53 15be
000000d0: 1bd0 193d b86e 67bd b3fc 4e3e 92e6 193e
000000e0: e3eb f63b a5aa 3c3e 67f1 d8bd b364 1d3e
000000f0: 87cf 453e 73e1 5d3c d641 aabd 8091 26bb
00000100: da30 3fbd 2153 b0bd 35c9 debd 56a8 023e
00000110: 8c81 8dbb b34a b7bc af65 f2bd 6968 1ebd
00000120: 85e0 e1bd 0876 31be 44d7 e23c 5da6 9f3e
00000130: c356 433e d0c3 40bd 96a6 353e 0587 29be
00000140: 8ae8 27be c230 953c 6090 f5bc 4148 41be
00000150: 26e1 cfbd 81ad 31be e9ae ee3d 6ed0 b53d
00000160: 5da8 1cbd dd9f 00be 7439 babd 5394 b3bd
00000170: 214b 89bc 138e 373e 8b27 153c 9d9c efbd
00000180: 0809 293e 366e 813b d27d f5bd fcd7 383c
00000190: fa8c 35be 08de 143c ea79 4b3e 49f9 13be
000001a0: 6013 f5bd 6bf1 723e 87a7 14be 4529 823e
000001b0: 04e7 ba3c f219 c03c 05bb e6bd 2d01 dabd
000001c0: 7242 7d3d 138a 553d a7bb 2b3e 2fc0 083e
000001d0: f8c8 83bc 5560 e3bd 8788 ab3d a3fb 94bc
000001e0: f09e 013c 1e62 1cbe c08f 35be c3e2 2b3e
000001f0: b94b 11be 4853 133e 5049 b8bb c3dd 053d
00000200: 7361 1d3e 97b0 f8bd e97d fabc c889 423d
00000210: 4181 373d bde5 2bbe 434f 823d efaf 1abe
00000220: 9121 0d3c 5f3f fb3d fa8a 19bd 5b91 cc3c
00000230: b4f0 b2bb e0d1 273e 9639 ca3d e006 2e3d
00000240: 6b91 f5bd 5200 93bd d305 ee3d 5169 0e3e
00000250: c108 af3d b4f0 0bbe
0.062418483 -0.037194796 0.037312664 0.047453795 -0.021728095 -0.123439796 -0.12726495 -0.14456935
-0.023237858 -0.1873818 -0.014880625 -0.062621884 0.15956412 0.16598736 0.106747694 -0.08926863
-0.05257325 0.031055108 -0.15818627 -0.07004015 -0.015132959 -0.056974106 -0.23003252 0.08952168
0.11166918 -0.06592844 0.06275922 -0.03337095 -0.008524427 0.0046235067 0.15580222 0.038076166
-0.12950468 -0.037772708 0.09453321 0.046642285 -0.0027358502 -0.03239179 -0.06413769 -0.036592662
-0.099486776 0.037969198 0.048079725 0.1480215 -0.04091265 -0.043989018 0.10778336 0.07764103
0.013465893 0.07025242 -0.027051903 -0.14582631 0.03755198 -0.056502074 0.20213585 0.15029362
0.007535444 0.1842447 -0.10592919 0.15370445 0.19317447 0.013542521 -0.083133385 -0.0025416315
-0.046677448 -0.086096056 -0.10878221 0.12759528 -0.0043184217 -0.022374487 -0.11835801 -0.038673792
-0.11029152 -0.17330182 0.027690537 0.31181613 0.19076066 -0.04706174 0.17739329 -0.16555412
-0.163973 0.018211726 -0.02997607 -0.18875219 -0.101503655 -0.17351343 0.11654455 0.088776454
-0.0382465 -0.12560983 -0.090929896 -0.08768525 -0.016759457 0.17925291 0.009103666 -0.116997935
0.16507351 0.0039499057 -0.11986889 0.011281963 -0.1772956 0.0090861395 0.19870725 -0.14450563
-0.11966586 0.23724906 -0.14517032 0.2542211 0.022815235 0.023449872 -0.1126614 -0.106447555
0.061830945 0.05213363 0.16770802 0.13354562 -0.01608704 -0.11102358 0.0837565 -0.018186396
0.007911429 -0.15271804 -0.17730618 0.16785721 -0.14189042 0.14387238 -0.005623974 0.03268219
0.15369205 -0.12143057 -0.030577617 0.04749468 0.044801 -0.16786857 0.06362774 -0.15106176
0.00861396 0.122679465 -0.037486054 0.024971655 -0.005460823 0.16388655 0.09874265 0.042487025
-0.11990627 -0.071777955 0.11622205 0.13907363 0.085465916 -0.1366604

bias f4 [5]
00000000: 7088 1c3e 1827 9fbc d0a3 043e e360 0e3e
00000010: 278b c43c
0.15286422 -0.019427821 0.12953115 0.13904147 0.023992134

evecs f4 [5, 2]
00000000: a13c db3d 7ef3 513e 0565 58bf 4a9d 943e
00000010: 9966 9dbd 6bbc 29bf a690 4d3e a154 20bf
00000020: d960 f4be 3f81 513e
0.107049234 0.20503041 -0.84529144 0.29026252 -0.076855846 -0.6630313 0.2007471 -0.62629133
-0.4773014 0.2045946

mean f4 [5]
00000000: 5651 5a3e d4ae a5bd c254 853c 87b8 043e
00000010: 6b7b 12bc
0.2132009 -0.080899864 0.016275767 0.12961017 -0.008940558

mean f4 [2]
00000000: 1d4c c0bd de6b 82be
-0.093895175 -0.2547292

range f4 [2]
00000000: 4272 173e 4c8f 913e
0.1478968 0.2842964
