Alanine_dipeptide/OPES_Flooding/ala2_deepTDA.pt (torch, 26003 bytes, 7 tensors)

mean f4 [45]
000000 aa e5 1a 3e 00 c6 72 3e 88 f5 77 3e db 25 c4 3e
       0.15126672 0.23708344 0.24214756 0.3831013
000010 54 79 eb 3e b6 44 ee 3e 8f 22 0b 3f 93 c9 f9 3e
       0.45991004 0.46536797 0.5434961 0.487866
000020 51 a8 1a 3f 0e c1 fa 3d 46 ae 08 3e b8 34 80 3e
       0.6041308 0.122438535 0.1334773 0.2504022
000030 53 4e ab 3e 1e af ab 3e 92 c1 da 3e 29 69 b7 3e
       0.33458194 0.3353204 0.42725807 0.35822418
000040 50 59 f9 3e b2 e5 66 3e d0 1f 94 3e 22 cc b8 3e
       0.48700953 0.2254856 0.2893052 0.3609324
000050 40 fa b3 3e b1 f8 e8 3e 93 83 ae 3e f4 3c ec 3e
       0.35151863 0.45502236 0.34084758 0.46140254
000060 59 b4 16 3e b5 12 7b 3e c0 22 82 3e cf e4 aa 3e
       0.14717235 0.24518855 0.25417137 0.33377692
000070 7c 6f a3 3e fd 17 e9 3e 71 9c 1d 3e 15 92 1e 3e
       0.31920993 0.45526114 0.15391709 0.15485413
000080 5a 67 76 3e 22 f4 7d 3e ac 21 c6 3e e3 aa 83 3e
       0.24062863 0.2480016 0.38697565 0.25716314
000090 21 2b a3 3e ee ed ae 3e d1 ef f1 3e bd 01 fc 3d
       0.31868842 0.341659 0.47253278 0.12305019
0000a0 0a 3c 09 3e 13 70 7e 3e 49 2a 66 3e 2a 32 91 3e
       0.1340181 0.2484744 0.22477068 0.28358585
0000b0 a3 ee 15 3e
       0.14641814

range f4 [45]
000000 94 14 48 3b ec 7e 9a 3b 30 55 a3 3b 63 37 bb 3b
       0.0030529844 0.0047148373 0.0049845204 0.0057133897
000010 bf 62 7f 3c bb a5 5e 3c 89 38 36 3d 93 78 80 3d
       0.015587508 0.013589318 0.04448751 0.06272998
000020 54 97 83 3d 8c 98 19 3b aa 8c 26 3b d6 ad aa 3b
       0.06425348 0.0023436872 0.0025413432 0.005208711
000030 c9 7c b4 3c b3 c5 98 3c 8a 3f c6 3c 0a 96 84 3d
       0.022032158 0.018648958 0.02420022 0.0647393
000040 44 ef 84 3d 65 11 86 3b a4 64 12 3c 7c 9f 29 3d
       0.06490949 0.004091429 0.008935127 0.04141186
000050 eb 00 1d 3d 38 a5 ae 3c 7e 78 b7 3d b0 83 c9 3d
       0.038330954 0.021319017 0.08958529 0.098395705
000060 02 90 45 3b d8 13 be 3b 49 89 ee 3b dc d0 12 3d
       0.003014565 0.0058007054 0.0072795493 0.035843715
000070 02 29 f0 3c 33 46 c4 3c c4 4c 4a 3b da 04 45 3b
       0.029316429 0.023959255 0.003086851 0.0030062706
000080 29 04 9a 3b c2 6a aa 3b a6 f1 bb 3b 14 0d c3 3b
       0.004700203 0.005200715 0.005735594 0.005952487
000090 32 c5 be 3c dc 66 ce 3c c7 39 bd 3c 94 98 1a 3b
       0.02328739 0.025195532 0.02309884 0.0023589479
0000a0 3a 10 22 3b 18 ea 98 3b 72 3a 85 3b 17 c8 fc 3b
       0.002472891 0.004666578 0.004065805 0.0077142823
0000b0 e7 ec 44 3b
       0.0030048431

weight f4 [30, 45]
000000 a2 0b 9c 3d dc 2f b8 3d 94 1d a9 bd 78 81 ab 3d
       0.07619406 0.089935035 -0.08257595 0.083743036
000010 72 40 ac 3d ef 1d e8 3d 9a 67 84 bd 82 90 e8 3d
       0.084107295 0.113338344 -0.06465073 0.11355688
000020 8e 23 2c 3e d1 85 6b bd 1f 2a 96 3d 80 a2 d1 bc
       0.16810438 -0.057500664 0.07332253 -0.025590181
000030 98 3b 75 3e f0 f8 99 3d 50 9a 9d 3d 50 93 44 3c
       0.23948514 0.07518184 0.076954484 0.011998013
000040 b7 13 1e 3e d5 d9 b0 3c c7 48 da bd 48 48 2d 3e
       0.15437208 0.021588245 -0.106584124 0.16922104
000050 74 b6 fb bc 8d 0b a8 3b 94 51 5c bc f8 d7 15 3e
       -0.030726649 0.00512833 -0.013447184 0.14633167
000060 aa 60 78 bd a8 7f 10 be 69 d9 50 bd d5 b6 b8 bd
       -0.06063906 -0.14111197 -0.05098859 -0.090192474
000070 68 4f 9b 3b a8 f6 1b be b7 36 94 3d 1a 69 de bd
       0.0047396906 -0.1523081 0.072369985 -0.1085989
000080 29 e2 19 3e cb 26 c6 3c 92 7c 36 bd 5c 52 f1 3d
       0.1502768 0.02418842 -0.044552393 0.11783287
000090 cb c3 3c bd 65 9c 3a 3e 41 5c 8c 3d d5 db 8f bd
       -0.04608516 0.18223722 0.068535335 -0.070243515
0000a0 20 b7 84 3c 37 2f 6d bd 5a d8 e5 3c 6d 89 d7 3d
       0.016200602 -0.057906356 0.028057266 0.10524259
0000b0 5b 75 ac 3d 86 e0 c2 bd 26 e8 5c 3d f2 1b d3 ba
       0.08420821 -0.09515481 0.05393233 -0.0016106351
0000c0 e8 81 70 3d 73 9e fc 3c 6b 4a dd bd 92 5b a2 3c
       0.05871764 0.030837273 -0.1080521 0.019819055
0000d0 28 84 36 be ba e8 8e 3d 85 49 5c bc b8 d4 78 3d
       -0.17823851 0.06977983 -0.013445263 0.06074974
0000e0 fb fc 88 bb 5f 34 05 3e 92 af 11 3e f1 a3 9b bc
       -0.0041805482 0.13008259 0.14227131 -0.018999072
0000f0 2d d6 2d bd 95 d7 13 be ef 6d ba 3c 3a 1f f1 bd
       -0.042440582 -0.14437707 0.022757499 -0.11773534
000100 fc fc 37 3e d3 3c 96 bc 29 30 5c 3e d9 46 c7 bd
       0.179676 -0.01833955 0.21502747 -0.0973031
000110 81 87 b3 bd eb 2d 18 bc d7 bd 1d 3d f3 fc 92 bc
       -0.0876608 -0.009288291 0.038511124 -0.017942881
000120 3c b6 4e 3e 2d 44 65 be a9 90 7a be 2c 11 3e be
       0.20186704 -0.22389288 -0.24469246 -0.18561238
000130 a3 98 87 bd 65 37 24 3d 46 2b 2e 3d 8b 32 c8 3d
       -0.0662091 0.04009189 0.042521738 0.09775265
000140 4f 00 ce bd ba 3f 43 be da 37 34 3e 88 61 fc 3c
       -0.100586526 -0.19067279 0.1759943 0.030808225
000150 09 91 dd 3c 51 1e c4 bc d1 69 44 3d bc ee 99 bd
       0.027046697 -0.023940237 0.047952477 -0.07516238
000160 30 b8 04 bd d1 d8 c9 bb d2 c2 54 3d 11 26 33 bc
       -0.032402217 -0.0061598797 0.051943608 -0.010934369
000170 ce 87 10 3e 6c 1a ce 3d 5c e2 25 be 4e 98 05 be
       0.14114305 0.10063633 -0.1619963 -0.13046381
000180 a4 90 5f 3e 10 a0 ea bd ce 53 d9 bd 1b e5 d1 bd
       0.2183252 -0.11456311 -0.106116876 -0.102487765
000190 ae c6 76 bd ae 75 04 3e 63 02 0c be 92 5f 46 be
       -0.06024807 0.12935516 -0.13672785 -0.19372395
0001a0 70 1b a0 3d ec 85 30 be a3 53 47 be e2 78 8b bd
       0.07817733 -0.17238587 -0.19465499 -0.06810166
0001b0 f9 5b 9c bb 42 71 66 be 9a 0e 39 3d a8 36 dd bd
       -0.004771706 -0.22504142 0.04517994 -0.108014405
0001c0 93 f6 24 bd 07 0a 6a be b4 35 4d be 14 24 cd 3d
       -0.040274214 -0.22855388 -0.20040017 0.10016647
0001d0 46 ef 3f 3e 94 e3 3a bc 71 cc 9d bd 90 5a 88 bd
       0.1874362 -0.011406798 -0.0770501 -0.066578984
0001e0 d8 c1 85 bc 24 0b 9a bd 1c 2c 3f bc cd ac c2 bd
       -0.016327783 -0.07521656 -0.011668231 -0.095056154
0001f0 30 0c e3 bd d5 7d 8f 3c d2 d0 97 3d 89 0d 5c be
       -0.11086309 0.017516056 0.07412876 -0.21489538
000200 23 58 0b 3d 06 6c e2 bc 5b a3 05 3e e4 5c 5e 3d
       0.0340196 -0.0276394 0.13050596 0.054287806
000210 b6 db 21 be 62 00 95 3d 59 c2 42 bc 63 50 8d bd
       -0.1580647 0.07275464 -0.011887156 -0.06900098
000220 54 15 c7 bd 65 86 49 be 69 cd 4b bd 48 c3 5c 3d
       -0.09720865 -0.19680174 -0.04975644 0.053897172
000230 f5 61 37 3e 07 1f dc bd 77 e5 37 3e 05 b9 ae bc
       0.17908461 -0.107481055 0.17958628 -0.021328459
000240 05 8f 57 3c a6 6e dc bc e3 78 d2 bc ea ff 6f 3e
       0.013156657 -0.02690823 -0.025692409 0.23437467
000250 8b 1d 63 3e a8 2d 14 be a1 52 f6 3d bb c8 e5 3c
       0.22179238 -0.14470541 0.12027479 0.028049817
000260 62 db 1c bb 6c eb 2b be b6 c2 82 3e 51 ca 42 bd
       -0.0023934473 -0.16789025 0.25539178 -0.047556225
000270 15 29 90 3d 9e a6 20 3e fc e5 19 3e 3e 72 29 3c
       0.07039086 0.1568856 0.15029138 0.010342179
000280 5f 76 ac 3c f2 da 8a bb 2a 68 93 3c 65 c6 2a be
       0.021052537 -0.004237526 0.017994005 -0.16677244
000290 0c 79 14 3d 55 25 dd bd 56 6f 8a bd 38 56 17 3e
       0.03624825 -0.10798136 -0.06759517 0.14778984
0002a0 30 92 50 3d ca 9b 54 bd 4f ee ab bc 04 32 c8 bd
       0.050920665 -0.051906385 -0.020987658 -0.09775165
0002b0 e5 92 2c 3e f3 23 19 3d a5 74 da bd cb c3 87 bd
       0.16852911 0.0373878 -0.106667794 -0.066291414
0002c0 5e 12 69 bd 63 8e 40 bb 38 7d d2 3d 38 bc 6e bd
       -0.056902282 -0.0029381744 0.1027779 -0.05828497
0002d0 1b 26 eb 3a 88 cb 28 3d be b4 71 bc 1c 8d d5 bd
       0.0017940433 0.041209728 -0.014752565 -0.10427305
0002e0 44 e9 4b 3e fb fa 34 3e 75 4c 94 3d ab 69 0b 3c
       0.19913203 0.17673866 0.072411455 0.00850908
0002f0 ac 73 22 3c 16 6b fb 3c c7 f4 5c bd 15 5f ac bd
       0.009915274 0.030690711 -0.053944375 -0.08416573
000300 31 43 70 3e 8f 1d 48 3e 82 48 f2 bb c7 6a 36 3c
       0.23463131 0.19542526 -0.0073938975 0.011133856
000310 07 a9 60 3d c0 c5 2f bc 86 bc 90 b9 75 25 3c 3e
       0.054848697 -0.0107283 -0.0002760628 0.18373664
000320 63 7c bb bd bb 9d 49 bd 0d c0 40 3e 1a 2c f6 3d
       -0.09154584 -0.04922269 0.18823262 0.120201305
000330 d9 43 56 3d 40 aa 33 be 2c 26 b3 bd 3a 24 01 be
       0.0523108 -0.17545414 -0.08747515 -0.12611476
000340 24 58 84 bd 86 9d 29 3d 1e fe 3f 3b 75 e2 aa 3d
       -0.06462124 0.04140999 0.0029295753 0.083439745
000350 8e 7b 8c bd f3 c5 9e bd 06 9e 0a bd fe fe 27 3e
       -0.06859504 -0.077525996 -0.03384211 0.16405866
000360 24 7a 57 bd 1f de e5 3c 81 2b f0 3d 44 6c c6 bc
       -0.052606717 0.028060017 0.11727048 -0.024221547
000370 f8 2e e6 bc b2 0e ec 3d 9c 0b e5 bc 41 20 af bd
       -0.028098568 0.115262404 -0.027959637 -0.08551074
000380 1a 21 be bd 55 b4 8d 3d fa e6 48 3d 35 a2 b4 3d
       -0.09283657 0.06919161 0.0490484 0.08820001
000390 71 6c a3 bd 79 4e 7b be 4f 7a b4 bd 4a a0 63 3e
       -0.07979668 -0.24541654 -0.08812391 0.22229114
0003a0 83 10 71 bc 08 31 57 3d e5 61 b3 3d fc 32 6f 3d
       -0.014713409 0.052536994 0.08758906 0.058398232
0003b0 12 f3 0e 3e ed 29 83 be 35 31 52 be df 62 14 bd
       0.13959911 -0.25617924 -0.20526583 -0.036227103
0003c0 ec b3 e9 bc 9d bd 23 be 67 af 59 bb 15 5b 87 3d
       -0.028528176 -0.159903 -0.003321612 0.066091694
0003d0 e4 7e 35 be 65 0e 64 be d2 37 58 be d3 11 59 bd
       -0.17724186 -0.22271116 -0.21115044 -0.052995514
0003e0 fc 3e 1c be b4 e5 04 bd 7e 09 ef 3d 76 50 79 3d
       -0.15258402 -0.032445624 0.11671732 0.06086775
0003f0 8f 22 ea 3d c4 d9 bc bd 72 af c5 bb 37 5f 03 be
       0.11432373 -0.09221223 -0.0060328776 -0.1282929

bias f4 [30]
000000 f4 ea e0 3d ca 32 5e 3a a9 78 4b 3e a7 af 17 3e
       0.10982314 0.0008476196 0.19870247 0.148131
000010 66 ea 6c 3e 94 14 ec 3d 89 4b 77 3c a4 e6 5b 3e
       0.23136291 0.115273625 0.015093693 0.21474701
000020 24 84 cc 3d 66 2e 9f 3d 8d ba 0c 3d 0d c9 09 3e
       0.09986141 0.07772522 0.034357596 0.13455601
000030 6a 73 1a be c4 b5 3b 3e 50 77 45 3e 3a df 9e bc
       -0.1508309 0.18331057 0.19283795 -0.019393552
000040 e8 6a f7 3b 6d ff 23 3d 02 6d 88 3e c4 e6 4c 3e
       0.007550586 0.040038515 0.26645666 0.20009905
000050 97 ca c1 bc f1 79 9c 3e a5 4b e8 3d 87 8e 9d bc
       -0.023656173 0.30561784 0.11342553 -0.019233001
000060 bc ac 3f 3e 1e 7e b7 3d c4 19 94 3e 69 de 99 3d
       0.18718237 0.08959602 0.28925908 0.075131245
000070 81 0f 82 3e 7b 58 4d 3e
       0.25402454 0.20053284

weight f4 [15, 30]
000000 d1 5d f5 3c e8 b6 1e bc 73 ef 8d 3e bb f6 8a be
       0.029951962 -0.009687163 0.27721748 -0.27141365
000010 b8 5e 23 3d 0e c3 f8 3d cc 75 fe bd e1 fc 61 3d
       0.039885253 0.12146579 -0.12424812 0.055172805
000020 9c 26 38 3d 12 44 1b 3c 4a 7a 13 be 10 83 82 3d
       0.044958696 0.009476678 -0.14402118 0.063726544
000030 52 66 97 3e ba f2 9f 3d d0 fe 8c 3d f8 07 af bc
       0.29570252 0.07809968 0.06884539 -0.021366104
000040 f7 a6 40 bd 9c be 34 3e de d6 44 bb e4 39 39 be
       -0.04703423 0.17650837 -0.0030035297 -0.1808849
000050 b3 2b 2f be 0a 48 51 bc 88 81 98 3d 52 03 b1 3d
       -0.17106514 -0.012773523 0.07446581 0.086432114
000060 e9 ff 25 3d 0c b6 5d bd ae 43 fd 3d c5 a3 2d be
       0.040527258 -0.05412869 0.123664245 -0.16957004
000070 9f 23 c0 bd 39 b1 27 3e b3 af bd bd ef cd e5 bb
       -0.09381794 0.16376199 -0.092620276 -0.0070130746
000080 8b 8d f2 3d 7e 93 0c be 71 c6 1e be 95 c3 db 3d
       0.118434034 -0.13728139 -0.15505387 0.10730664
000090 ac b4 40 be 09 fa 1a bd 1b c8 59 3d ac 50 1c 3e
       -0.18818921 -0.03783611 0.05316935 0.15265149
0000a0 ad ee a3 bc 4a ce 06 3e f3 3f f7 3b 3f 52 5a bc
       -0.02001127 0.1316463 0.007545465 -0.013325273
0000b0 fb 97 e1 3c 2e 5e e5 bd 6a 47 4c bd 4d 72 7d 3d
       0.02753829 -0.11199604 -0.049872793 0.061876584
0000c0 24 fe b0 39 c5 f1 f9 bd 8c 9b 79 3d f2 fe 5b 3e
       0.00033758685 -0.12204317 0.060939357 0.21483973
0000d0 f3 55 4e 3e 6b 8f ac 3d 9c 3a 09 bd 5c 55 1e bd
       0.20149975 0.08425792 -0.03350316 -0.038655624
0000e0 75 42 70 3e a0 b6 a0 3c 57 30 41 be 59 96 02 3e
       0.23462851 0.019618332 -0.18866096 0.12752666
0000f0 68 ef 64 be 02 8a 50 3d f3 7a 96 3d f4 b6 5c be
       -0.22356951 0.050912865 0.073476695 -0.21554166
000100 3e 84 a2 be 66 6e aa bb 04 bd 4d 3d 19 ba 9f 3d
       -0.31741518 -0.005201149 0.050229087 0.07799167
000110 1d f8 8f bd 5f 63 94 3d aa a2 8c bd 7c 1b 67 bd
       -0.07029746 0.07245516 -0.06866963 -0.056422696
000120 e1 92 2c 3e f5 0d 8e 3e 69 51 03 3d 5f 00 86 bd
       0.16852905 0.27745023 0.03206006 -0.065430395
000130 90 a1 ea 3d da d7 40 3e 68 b6 83 3e 62 1f d9 bd
       0.11456597 0.18832341 0.25725102 -0.10601689
000140 8e 59 63 be a0 ce 6e 3e 98 8e 1e 3e c3 dc 97 bd
       -0.22202131 0.23321009 0.15484083 -0.07415154
000150 17 70 75 3d c8 9e f7 bd 1c 1f 92 3e 02 02 07 be
       0.05992135 -0.12090832 0.2853936 -0.1318436
000160 fb 51 e5 3d 73 4b 94 3e 21 e6 91 3c f6 32 21 3d
       0.11197277 0.28963813 0.01780993 0.03935524
000170 4e 69 25 3d 47 96 08 3e 72 30 29 be 63 3d e4 3d
       0.04038363 0.13338576 -0.16522387 0.11144521
000180 64 3f 10 bc 05 7d 02 3e 95 d8 d9 3c 8e 96 ba bd
       -0.008804176 0.12743004 0.026592532 -0.09110747
000190 1f 9a e2 3b a9 93 c1 3d 68 e8 0c be 33 53 23 be
       0.0069153453 0.09451992 -0.13760531 -0.15949707
0001a0 38 9f 02 bd 89 3e c6 bd 3a 9f 80 3d e5 6a 44 3e
       -0.031890124 -0.096798964 0.0628037 0.19181402
0001b0 29 44 46 3b db bd 2f 3e d1 94 9d bd f0 21 d5 bd
       0.003025303 0.17162268 -0.076944 -0.10406864
0001c0 77 8e c1 bd 25 9c e9 bd cb 66 a4 bd 78 84 1f be
       -0.09451001 -0.11406735 -0.08027419 -0.15577877
0001d0 7e 2c 16 be 73 ff 5d 3d d3 79 d0 3d db 4a 6b 3e
       -0.1466541 0.054198693 0.10179486 0.22977774
0001e0 af a8 73 3e f0 3b e7 3d e6 d0 9e bd 93 94 3c 3c
       0.23794816 0.11290729 -0.07754688 0.011510032
0001f0 81 2c 35 3e da 05 9d be d6 59 5d 3e 69 1b fb 3d
       0.17692758 -0.30668527 0.21616301 0.122610874
000200 22 90 26 3e a9 79 f9 3c 50 18 f3 3c d2 0e 6c 3e
       0.1626592 0.03045352 0.029674679 0.23052529
000210 7a 3f ee 3d df 03 41 bc c2 a9 e8 3d b0 3e 5a 3e
       0.11633201 -0.011780708 0.11360504 0.21312976
000220 92 e3 50 3e 9e 9e dc bc 28 0f 55 3e 0f 1e df 3c
       0.20399311 -0.026931103 0.20806563 0.027236013
000230 7c e7 86 3e 7f 48 92 bc 6e ba d8 bc 1e 06 a6 3e
       0.26348484 -0.017856834 -0.026456084 0.32426542
000240 39 b3 4e bd 4f 06 55 3d ab 9e f3 bd ac e3 32 3e
       -0.05046389 0.05200797 -0.11895498 0.17469662
000250 b2 8f fb 3d 97 12 f2 3c 2d d2 89 3d dc 38 2a 3e
       0.12283267 0.02954988 0.06729541 0.16623253
000260 a2 d7 34 3b c0 4c b1 bd ac 86 02 be 8f 3b 8a 3b
       0.0027594347 -0.08657217 -0.12746686 0.0042185257
000270 7b f9 67 3c e2 d3 8f bd 05 10 19 bd 1c 4f ac 3d
       0.014158602 -0.07022835 -0.037368793 0.084135264
000280 c0 80 22 be 13 82 28 3e b6 fb 13 3e b5 43 95 3e
       -0.15869427 0.1645587 0.14451489 0.2915322
000290 d1 91 79 3c 0e ed 92 ba e4 a1 f6 3c 47 53 1e 3e
       0.015232519 -0.0011209564 0.030106492 0.15461455
0002a0 6e 44 c4 bc 7b 17 07 be e4 5f 13 be e8 ac 2a 3e
       -0.023958411 -0.13192551 -0.14392048 0.16667521
0002b0 d2 6e 57 3e 1a bf 40 3d 69 29 8c 3e 01 40 07 ba
       0.21038368 0.04705725 0.27375343 -0.00051593786
0002c0 4f 88 ac 3d e5 92 8f be e0 5c 28 be f8 e3 e7 3c
       0.08424436 -0.2804176 -0.16441679 0.028306946
0002d0 68 be 1b 3e 09 fd 6c 3e 2d 0f 3c 3d a7 9a 46 3d
       0.15209353 0.231434 0.04591291 0.04848733
0002e0 f6 3b d9 3d 71 eb 4a be 3c da 07 3e 7c a5 22 3e
       0.1060714 -0.19816376 0.13266844 0.1588344
0002f0 bc 3d b3 3d 3d d6 35 3d 84 27 0c 3e b2 41 1e 3e
       0.08752009 0.044393767 0.13686949 0.15454748
000300 fb 1c 8d bc a3 bf 74 be 13 ec 18 3e e4 16 bb 3d
       -0.017225733 -0.23901229 0.14933805 0.091352254
000310 5a 0b 3e 3c 51 16 fd bc 8f 41 d3 3d 73 cf 66 3d
       0.011599386 -0.03089443 0.10315239 0.056350183
000320 e7 32 67 3d d8 61 25 bd 0b 19 a1 be 5f d2 43 3e
       0.05644503 -0.040376514 -0.3146442 0.19123219
000330 d2 ad 8f bd 7c 7d 6f 3e f0 51 8a bd 40 7d 16 3e
       -0.070155755 0.23387712 -0.067539096 0.14696217
000340 83 f0 23 3e 76 30 66 3e 76 fb 0a be d7 b2 33 3e
       0.16009717 0.22479424 -0.13572487 0.1754869
000350 6f 92 1c 3e 3e 9c 62 be 81 a3 68 bc f0 79 c0 3b
       0.15290235 -0.22129914 -0.014199139 0.005873911
000360 17 66 2e bd 24 b1 c3 bd 5e 9f 23 be 0f 9c 86 3e
       -0.04257783 -0.09555271 -0.15978763 0.26290938
000370 3d 37 79 be d3 de 6c 3d 3f 76 4c bd 8e e3 b8 3d
       -0.24337478 0.05782969 -0.049917456 0.090277776
000380 51 99 15 bd 19 ab a1 3d 5a 8c cf bd 8f 4e 2a 3e
       -0.036523167 0.078939624 -0.10134192 0.1663153
000390 b9 f1 be 3d de 40 9d 3d d1 76 9a bd cd a2 67 3e
       0.09323449 0.07678388 -0.07542194 0.22620697
0003a0 23 cc c0 3c b4 bf 05 be 5f 8f 90 3e cd 7e 2c be
       0.02353484 -0.1306141 0.28234383 -0.16845246
0003b0 b8 69 d4 3d fa 3f f4 bd e7 ca fb 3d 49 c3 ac 3d
       0.10371727 -0.11926265 0.1229456 0.08435685
0003c0 f8 cb 44 be 01 ff 0a 3c 1a e1 46 3e 29 0d 36 3c
       -0.19218433 0.008483649 0.19421807 0.011111536
0003d0 26 3e 94 3d 37 fb 8b 3d 80 ef 1c 3d f4 0f 30 be
       0.072384164 0.06835025 0.038314342 -0.17193586
0003e0 ef 22 d1 3d 90 de 31 3e 34 01 df 3c ce 04 14 bd
       0.10211741 0.17370057 0.027222253 -0.036137395
0003f0 99 12 b8 bc 60 8e 18 3e 9b f2 30 be 4e 89 26 be
       -0.022469806 0.14898062 -0.17280047 -0.16263315

bias f4 [15]
000000 e3 70 4d 3e 25 32 ab 3d 64 a9 af 3d a2 ec ef bd
       0.20062594 0.08359174 0.085772306 -0.11715056
000010 ea c0 6a 3e 24 19 09 3e c3 5d b2 3d 71 ec 36 3e
       0.22925153 0.13388497 0.0870929 0.17863633
000020 cc 39 80 3e 1b 79 0f 3d 17 3b 1c 3d 9c 0c 6e 3e
       0.25044096 0.035027605 0.03814229 0.23246998
000030 bd 06 59 3e b9 d0 c3 3c 1b e7 66 bd
       0.21193977 0.023903238 -0.056372743

weight f4 [1, 15]
000000 e5 f5 3c 3e cc 1c 73 3e 5b 82 54 3e f4 c5 62 3e
       0.18453176 0.23741454 0.20752852 0.22145826
000010 f4 64 aa be f3 d8 93 3e 02 78 a0 be a8 4b 8a 3e
       -0.33280146 0.28876457 -0.3134156 0.27010846
000020 97 e5 a5 3e bd af 6a 3e 0a 7b a7 3e 0e 0b a0 be
       0.32401726 0.22918601 0.3271106 -0.31258434
000030 f6 49 af be 8f d9 c4 be fb 4c 9e 3e
       -0.34236115 -0.38447234 0.30918106
