Alanine_dipeptide/OPES_Flooding/ala2_torsion_deepTDA.pt (torch, 26397 bytes, 7 tensors)

mean f4 [39]
000000 79 4a 09 3f d5 e5 1c 3f 5c d7 f8 3e c5 a3 02 3f
       0.5362926 0.61288196 0.48601806 0.5103114
000010 10 1e e0 3e 7b 24 10 3f 9c 38 14 3f e1 34 d9 3e
       0.43772936 0.56305665 0.5789888 0.42423156
000020 b0 f4 52 3f e3 0f 42 3e 3a ba 2d 3e e3 0f 42 3e
       0.82404613 0.18951373 0.16965571 0.18951373
000030 2f 4f 22 3f e4 d0 a7 3e 35 4b cb 3e 45 8f 26 3f
       0.63402075 0.32776558 0.39705816 0.6506236
000040 68 a7 e9 3e 76 9a 1f 3f fd 1f e2 3e 2f 6a da 3e
       0.45635533 0.62345064 0.4416503 0.42659137
000050 2b 78 ea 3e 73 79 d9 3e fe 45 1e 3f c4 9b d7 3e
       0.45794806 0.4247547 0.6182555 0.42111027
000060 0b 36 1d 3f cd c0 f1 3e 01 00 c8 3e 27 1d 4b 3f
       0.6141059 0.47217408 0.39062503 0.7934136
000070 ae 98 4c 3e d9 60 b6 3e ee 64 25 3f ec fd 47 3f
       0.19980118 0.35620764 0.6460713 0.7812183
000080 28 c4 43 3e 1f 3e 58 3e 1f ec 50 3f 64 e8 13 3f
       0.19117796 0.21117447 0.8161029 0.57776475
000090 b1 47 eb 3e 0d 47 ee 3e e1 b0 da 3e
       0.45953134 0.46538582 0.42713073

range f4 [39]
000000 b3 7f 69 3f ab cb 16 3f 16 0b 34 3f 01 ee 34 3f
       0.9121048 0.5890452 0.70329416 0.70675665
000010 60 41 38 3f 6f ad 37 3f a9 82 31 3f 61 5c 31 3f
       0.71974754 0.71749014 0.69339997 0.69281584
000020 9c ff 1e 3e 94 b9 27 3e ee 86 1f 3e 94 b9 27 3e
       0.15527195 0.16379386 0.15578815 0.16379386
000030 de a7 fd 3e d6 08 2b 3f e3 22 03 3f f9 7a 2d 3f
       0.49542135 0.6681036 0.5122511 0.67765766
000040 ec bf 66 3f 62 97 3c 3f cd 46 2e 3f c8 25 31 3f
       0.901366 0.7366849 0.68076783 0.69198275
000050 a5 7c 2b 3f 58 e0 31 3f 43 46 3c 3f 9a 27 34 3f
       0.6698707 0.69482946 0.7354471 0.7037293
000060 4e 9c 3c 3f 49 d7 29 3f e0 38 18 3f 25 83 1d 3f
       0.73676 0.66344124 0.59461784 0.61528236
000070 44 fe 1f 3f 2f 22 4e 3f a8 f0 4b 3f b0 38 2c 3e
       0.62497354 0.8052091 0.7966409 0.168185
000080 1f 43 28 3e 35 80 27 3e c7 d1 29 3e a9 6d 36 3f
       0.16431855 0.16357501 0.1658393 0.7126108
000090 2e 33 32 3f 4a da 33 3f 1a c2 35 3f
       0.69609344 0.7025496 0.709993

weight f4 [30, 39]
000000 fc bc 65 be a5 6e 92 3d 37 c2 bd 3c 2c 0f df bd
       -0.22435373 0.0715001 0.023163898 -0.10891566
000010 31 8f 52 bd 0b ac c5 bd 4d 07 8a bd 8b 33 b1 3d
       -0.05140609 -0.09651955 -0.06739674 0.08652409
000020 6c dd 92 3d f2 68 36 bd fa 14 8b 3d ed 9a 75 bd
       0.07171139 -0.044533677 0.0679111 -0.059962202
000030 2a a3 46 3e f7 81 92 3d b4 55 7a be 37 df 14 be
       0.1939818 0.07153695 -0.24446756 -0.14538275
000040 58 6e 91 3e 3e 47 73 bd e6 7a ea bd 65 18 71 3d
       0.28404498 -0.059394114 -0.11449222 0.058861155
000050 54 b3 36 be 58 ca 5b 3d 9c 23 e1 3c c3 12 89 3d
       -0.17841846 0.053659767 0.0274828 0.06693032
000060 22 0e 39 bd c7 43 49 be 74 65 92 bd 7d 4c 1a 3e
       -0.045179494 -0.19654761 -0.07148257 0.1506824
000070 94 44 2f be d2 ce aa bd 7b ab f4 3d b3 24 80 3d
       -0.17116004 -0.08340229 0.1194677 0.06257
000080 57 fd 99 3d b4 de 27 be 58 a3 c4 3d 81 09 9e 3c
       0.07519024 -0.16393548 0.09601468 0.019291641
000090 62 71 92 3d b1 b5 79 3d 85 94 1a be e0 c8 87 3d
       0.07150532 0.06096429 -0.15095718 0.06630111
0000a0 9f 41 02 be cc 54 fb 3d 9d 2f 30 3d be 14 dd 3c
       -0.12720345 0.12272033 0.043014158 0.02698743
0000b0 80 b8 a7 bd c3 41 47 3d 0e a3 71 bd 9d 91 5d 3d
       -0.081894875 0.0486467 -0.05899339 0.054093946
0000c0 6d 4c 4f 3e 10 0c 20 be ad 81 b6 3c 72 5e fa 3c
       0.20243998 -0.15629601 0.022278631 0.030562613
0000d0 8f 43 44 b9 79 aa a0 3a d5 02 2a 3e c1 a0 82 bd
       -0.00018717184 0.0012257836 0.16602643 -0.063783176
0000e0 ee 45 ee 3c 16 d4 f7 3d e3 30 ac bd f9 e4 0d 3e
       0.02908608 0.12100999 -0.08407762 0.13856877
0000f0 05 15 60 3d a8 3b 83 3d 83 b3 d2 bd a4 7e 0a 3e
       0.054707546 0.06407863 -0.102881454 0.13524872
000100 ec 8a 6b bd 4d 15 da 3c fa 23 74 3d f2 71 c4 3d
       -0.057505533 0.026621485 0.059604622 0.09592046
000110 95 37 02 be dd 51 bf 3c 2c 56 8f bc 69 d5 14 3e
       -0.12716515 0.023354465 -0.017497145 0.14534535
000120 a4 e6 47 bc 18 58 50 be 04 d6 11 be 7e 35 f0 3d
       -0.012200985 -0.20346105 -0.14241797 0.11728953
000130 cd a1 20 3e 3d 7a 8d 3e 9a 15 e6 bc 30 6f 3c 3d
       0.15686722 0.27632323 -0.028086472 0.046004474
000140 c7 99 5f 3d cd 27 fc bd 79 dd e7 3d 9d 4f e8 bc
       0.054590013 -0.12312279 0.113215394 -0.028358275
000150 58 1b f6 3d 10 0d d7 3c 4f 26 d1 bb b1 be 9c 3d
       0.12016934 0.026251346 -0.0063827406 0.07653559
000160 40 5f dd bd 95 10 13 3c e4 65 ff 3d 44 3d 74 3d
       -0.10809183 0.008976121 0.12470606 0.05962874
000170 2c ff a3 3c f1 be 8a be 73 37 41 3c 24 6a 00 3d
       0.020019136 -0.27098802 0.011793005 0.031351224
000180 0a 8b 16 3e a5 8f 4c be e1 f6 f8 3d 24 a0 9c bc
       0.14701477 -0.19976671 0.121564634 -0.01911933
000190 29 dc f5 3d d7 8e 33 be 47 f8 8a bd 92 d4 30 bd
       0.12004883 -0.17534958 -0.067856364 -0.043171473
0001a0 38 55 ee bd 52 a8 1c be 3d bd 97 bc 99 b6 36 3e
       -0.11637348 -0.15298584 -0.018522853 0.17843093
0001b0 db a8 dd bd d5 59 94 3d b3 84 8e bd b2 25 e0 bc
       -0.10823222 0.072436966 -0.06958904 -0.027361725
0001c0 4d 1e e5 bd 8e 10 85 3d b7 55 24 3e 54 99 c3 3d
       -0.1118742 0.06497298 0.16048323 0.095507294
0001d0 4a 84 6d 3c 71 c0 0c 3c 3d c3 1d be f6 26 db 3d
       0.014496872 0.0085908035 -0.15406509 0.107007906
0001e0 12 09 75 bd cd bd 0e be 52 a7 02 be fe d0 33 be
       -0.059823103 -0.13939591 -0.1275914 -0.17560193
0001f0 63 25 97 3d 71 99 ce bd 55 82 8b bc 70 ec 64 3e
       0.07380178 -0.100878604 -0.01702992 0.22355819
000200 65 f5 01 3c 48 f5 01 3e 89 85 57 3d fc c8 19 3d
       0.007932042 0.12691224 0.052617583 0.03754519
000210 d9 43 b8 bc 95 d4 34 3e 39 41 40 3e 78 03 19 bd
       -0.02249329 0.17659219 0.1877488 -0.037356824
000220 b0 93 3e 3d 9f ca fe bb 68 1f 43 be 85 19 4c 3e
       0.046527565 -0.007775619 -0.1905495 0.1993161
000230 2a 28 07 be ae e0 fe 3c e5 9a 5b 3c b4 81 d2 bc
       -0.13198915 0.031112995 0.013403629 -0.025696613
000240 c3 5e 9b bd a4 f4 4e bd a6 ec 9b bd 1a b1 63 bd
       -0.07586434 -0.050526276 -0.076134965 -0.05558882
000250 3f be 5a bd d0 6f 69 3e 98 2e 73 bd 96 05 0b bd
       -0.05340409 0.2279656 -0.059370607 -0.033940874
000260 6e f4 93 bd 66 e1 8d 3c 23 40 3b bd 7d 31 0e be
       -0.07224356 0.017319392 -0.045715462 -0.13886066
000270 33 a7 0e 3e 3b 3d 16 be 02 e9 0f 3e a1 8c 48 3d
       0.13930969 -0.14671795 0.14053729 0.04896224
000280 d5 41 48 3d 36 b1 fa bd c6 21 57 bd 44 95 6e 3e
       0.048890907 -0.122408316 -0.052522443 0.23299128
000290 23 df 22 be e2 10 a3 3c 67 10 08 3e 5d 09 f6 3c
       -0.15905432 0.019905511 0.13287507 0.030033762
0002a0 8b 7c 26 be 30 e2 f9 bd f1 a3 29 3d 77 87 24 3d
       -0.16258447 -0.12201345 0.041416112 0.04016825
0002b0 97 93 33 be ef 23 03 be f4 d7 81 3d f1 86 be 3d
       -0.1753677 -0.12806676 0.06340018 0.09303082
0002c0 4f 8f 26 3e be 00 09 bd 01 25 21 3d 51 ab 18 be
       0.16265605 -0.033447973 0.03934193 -0.14909102
0002d0 5e a1 8e 3d 74 e4 30 3e 64 00 b3 3d 38 49 2f 3c
       0.06964372 0.17274648 0.08740309 0.010698609
0002e0 a1 71 6f 3d dd ae 43 be 4e 8b 9f 3c 88 38 47 3d
       0.058457974 -0.19109674 0.019475605 0.048637897
0002f0 fb 83 2c be 8d cf 66 be 99 da db bd 1b 88 e0 bd
       -0.16847222 -0.22540112 -0.107350536 -0.1096346
000300 92 83 81 3d 5f d8 47 3d 43 df fd 3d 28 ea ba bb
       0.06323923 0.048790332 0.123960994 -0.005704183
000310 95 58 a7 bc d9 c8 ce 3d 93 c5 0b 3e 94 22 1a be
       -0.020427981 0.100969024 0.13649587 -0.15052253
000320 6f 0b ea bd b6 a4 36 3e 1e 8a 12 3e 6d c1 b6 bd
       -0.11427962 0.1783627 0.143105 -0.08923612
000330 0d b2 b6 3c 5f 0a d2 bd 51 cf 2e 3e 0f ff 8b 3d
       0.022301698 -0.102558844 0.17071272 0.06835758
000340 ce 30 8d 3e 23 e4 21 3e db db 2b be 97 1d 8b 3e
       0.27576298 0.15809684 -0.16783087 0.27171013
000350 b4 bf 36 be 4d 6b a9 bc 92 b2 5c 3c 73 4e 08 be
       -0.17846566 -0.020681048 0.013470309 -0.13311176
000360 e1 23 fd bb f4 0d 83 bd 6c c3 37 3d 77 7d 4a be
       -0.0077252244 -0.06399146 0.044864103 -0.19774424
000370 20 b3 84 bd 8c e3 70 3d 7a d2 81 be c9 f2 74 3e
       -0.06479478 0.058810756 -0.25355893 0.2392074
000380 9a 1d 9e bd f0 51 65 bd 06 d4 84 be 7b be df bc
       -0.0772049 -0.055986345 -0.2594301 -0.027312508
000390 36 ec 8e 3d aa ed 15 3e 96 62 62 3e 01 a6 59 3d
       0.069786474 0.14641443 0.2210792 0.05313683
0003a0 3e bd fc 3d 94 14 32 be 77 11 70 3e 5b 51 98 3c
       0.123407826 -0.17390662 0.23444162 0.01859348
0003b0 8c 0d 3a be 7e b6 a0 bd 66 d8 15 3e 26 a7 81 bd
       -0.1816923 -0.078473076 0.1463333 -0.06330709
0003c0 1f c1 45 be 8f 3b 62 bd ae 89 8b 3d be 5c bf 3c
       -0.19311951 -0.05523258 0.0681337 0.023359653
0003d0 93 4a a7 3c 70 81 18 be 53 0c e5 3c 48 53 83 be
       0.020421302 -0.14893126 0.027959978 -0.25649476
0003e0 5e 6b 3e 3e d8 5f 03 3e 12 3d 0e be d3 8f 1f 3c
       0.18595645 0.1282953 -0.13890484 0.00973888
0003f0 6d 05 0e bd 0f 58 11 bd af e6 09 3e b3 f1 d7 bd
       -0.034673143 -0.03548437 0.13466905 -0.10544147

bias f4 [30]
000000 38 fa 2c 3e 12 6c 7f 3e 41 ff 32 3e 46 b4 fd 3d
       0.16892326 0.2494357 0.17480184 0.123879
000010 cb 21 56 3e 57 4b 21 3e e8 f8 ed 3d 55 98 44 bc
       0.20911328 0.15751396 0.11619741 -0.011999209
000020 7f ae 03 3e 5c bc 7e 3d 6b cd 51 3e 53 0a 8c 3e
       0.12859534 0.062191352 0.20488517 0.27351627
000030 87 76 2e bd 22 5a f7 3c c5 71 9d 3e 97 58 f7 3c
       -0.042593505 0.030194346 0.30750862 0.03019361
000040 0a 2e 77 3e c7 4d 8d 3e 97 47 cd 3d 3d 13 d2 3c
       0.24138656 0.27598402 0.1002342 0.02564394
000050 31 c5 75 3e d1 20 7b 3e ec 4c 87 3e 2a 12 30 3e
       0.24001004 0.24524237 0.26425874 0.17194429
000060 22 0c 78 3e 64 b8 6d bd c6 09 36 3e 75 61 9b 3d
       0.24223378 -0.058037177 0.17777166 0.07586948
000070 54 c4 82 3e 70 78 84 bc
       0.2554041 -0.01617071

weight f4 [15, 30]
000000 d5 42 a8 bd 7f 77 cf 3c dd fd 87 be b5 86 22 3e
       -0.08215872 0.025325535 -0.2656087 0.15871699
000010 77 8b 16 3e 2c bb ca bc 2e 8e 06 3e 9d 03 16 3e
       0.14701639 -0.024747454 0.13140175 0.14649816
000020 8c 97 18 3e 36 59 77 3e 81 b5 33 3d a3 43 90 3d
       0.1490156 0.24155125 0.043874267 0.07044151
000030 b8 d9 6e 3e 39 03 77 3e 4e 53 1e be 00 9c b1 3d
       0.2332524 0.24122323 -0.15461466 0.08672333
000040 4d 24 24 3d d1 cd b6 bc ad ce 89 3e b9 ff 22 3e
       0.04007368 -0.022314938 0.26915494 0.15917863
000050 78 13 a9 bd 7a 75 78 be a4 12 8b 3d e1 d0 56 be
       -0.082556665 -0.24263564 0.06790665 -0.20978118
000060 16 61 00 be e0 8c 27 3d b2 e8 50 3e 1f 29 ca 3d
       -0.12537035 0.040905833 0.20401266 0.098711245
000070 f3 b1 f3 3d b5 69 1d bd e7 ea 4d 3e 56 59 0d 3e
       0.118991755 -0.03843089 0.2010914 0.1380361
000080 f9 e5 88 3e 51 da 8a 3d 68 cd 24 be a9 67 8d 3d
       0.26737955 0.06779922 -0.16093981 0.06904537
000090 6b 69 7b 3d b6 c0 cb bc a6 ed 93 3d 5f 6c 68 be
       0.06137983 -0.024872165 0.07223062 -0.2269759
0000a0 72 24 08 bd 32 ea 3f 3e 64 08 4d bd 47 1d 5c be
       -0.033237882 0.18741682 -0.05005683 -0.21495543
0000b0 ab 8d 80 3e da 32 27 3d ce ac 2e be d9 12 26 3e
       0.25108084 0.04081998 -0.17058107 0.16218127
0000c0 6d ae 36 3d 78 79 48 be 25 28 9e bb d6 78 12 3e
       0.04459994 -0.19577587 -0.004826563 0.14303908
0000d0 d4 c5 00 3e 54 57 66 3e 3d d1 1e 3c 25 1b e8 3d
       0.12575465 0.2249425 0.009693441 0.113333024
0000e0 4d 1b 80 3e 70 07 d8 bc a8 c1 17 3d b1 0f 68 3d
       0.2502083 -0.026370734 0.03704992 0.05665559
0000f0 41 e9 c4 bd 5b 53 08 bd c5 23 45 3d b9 e4 de 3d
       -0.09614802 -0.03328262 0.048129816 0.10883469
000100 f3 50 06 3e f0 f7 6e bd 2d 5f 68 3e f7 77 75 3e
       0.13116817 -0.05834192 0.22692557 0.23971544
000110 20 27 86 3e 8a eb 53 3e 2b 07 93 3e 4a 1e 01 3e
       0.26201725 0.2069532 0.28716406 0.1260921
000120 9a c1 ad 3d 4c 44 0e 3e 15 55 f7 bd 47 33 ec bd
       0.08484192 0.1389324 -0.12076775 -0.11533218
000130 66 96 93 3e d5 ed 67 be 1a 68 d7 3b 8f cf 42 bd
       0.28825682 -0.2264932 0.006573689 -0.047561225
000140 90 06 78 be e8 96 93 bc 06 47 63 3e bd 09 82 be
       -0.24221253 -0.018016294 0.22195062 -0.25398055
000150 82 f0 ad 3d 95 77 fa 3b c8 5a ec 3d 8c ea 39 3e
       0.08493139 0.00764365 0.11540753 0.18155879
000160 85 bb 13 bc e9 15 1d 3d 21 33 88 ba 4a 38 85 bb
       -0.009016876 0.038350973 -0.0010391214 -0.004065548
000170 6b 50 e5 bd 9c 15 28 bd 14 ba 72 3e 0a a9 16 bd
       -0.11196979 -0.041036233 0.23703796 -0.036782302
000180 f1 72 5f 3d 1a 4a 81 3e 43 24 a1 3e 6a 8a 5b 3e
       0.054552976 0.25251848 0.31472978 0.2143952
000190 64 07 da bc de d3 87 bd 7a 14 8b 3e f3 b1 84 3e
       -0.026614852 -0.06632207 0.2716406 0.25917014
0001a0 e7 6b 04 be 3b 31 e1 3c 3d 43 b1 3b b0 86 46 bd
       -0.12931786 0.027489295 0.0054096268 -0.04846829
0001b0 02 6c cc 3d b2 53 2e 3e e5 72 83 be b9 0c 1a bd
       0.09981538 0.17024115 -0.25673595 -0.03760979
0001c0 63 70 6a 3e 57 d6 ad 3c 7a 3a 5d bd 12 c9 af bd
       0.22894435 0.02122037 -0.054010846 -0.08583273
0001d0 9f 2e b5 bc 29 ac 87 3d fe f4 b7 bd a2 5e 30 bd
       -0.022116957 0.06624634 -0.089822754 -0.043059
0001e0 d3 55 a2 ba fe 5d 24 3e 2b fd d5 bd 5d c0 27 3e
       -0.0012385197 0.1605148 -0.104486786 0.16381975
0001f0 0a 7e c9 3d 5c 1b 17 bb 97 f8 20 3e 40 30 4b 3d
       0.09838493 -0.002305708 0.1571983 0.04960656
000200 09 f9 ec 3d cd 0c d9 3d f2 e8 47 3e c9 03 a9 bc
       0.11570937 0.10598145 0.19522455 -0.020631688
000210 1a 78 d3 3c 0b af 33 bd b5 ff cc bd ff 87 1e 3d
       0.025814105 -0.043868106 -0.1000971 0.038703915
000220 c9 e8 7b 3e 68 f4 66 be a9 30 48 3d 3a f4 69 3e
       0.24600519 -0.22554171 0.04887453 0.22847071
000230 96 65 3b be 0f c0 9c 3d c6 28 01 3e 72 8c 8c be
       -0.1830047 0.0765382 0.1261321 -0.274509
000240 8d db 57 3d 10 66 f4 bd 7d 62 d2 3d ff e1 95 bd
       0.052699614 -0.119335294 0.102726914 -0.07318496
000250 ca ea f5 3d cd f6 2f bd 0b 0e 89 3e 3d 4b 16 bd
       0.12007673 -0.042959977 0.26768526 -0.036692847
000260 e5 fb 29 bd d1 95 55 3e ba 3e cf 3d 2b 4d 1d 3e
       -0.04149999 0.20857932 0.10119386 0.15361468
000270 ec 03 3b be f2 ac c0 bd c1 f4 7a be 59 4e e8 bd
       -0.18263215 -0.09407987 -0.24507429 -0.11343069
000280 14 f6 29 3e e0 77 76 3e f3 24 8c 3d 0e 2f f0 bd
       0.16597778 0.24069166 0.06842985 -0.11727725
000290 ab 6a 7b 3e 3e 97 83 3e e6 66 0e 3a 19 8c 56 bd
       0.2455241 0.25701326 0.0005432203 -0.0523797
0002a0 37 38 2f 3d 11 cb c9 bd 11 ab 82 3e 22 01 5b 3e
       0.04277822 -0.09853185 0.25521138 0.21387151
0002b0 83 10 b2 3d 84 15 91 3c ab de 16 3c b8 d2 a7 3d
       0.086945556 0.017710455 0.009208362 0.08194488
0002c0 85 58 33 3e ad d1 16 3e bd a0 83 3e 20 20 3c bc
       0.17514236 0.14728422 0.2570857 -0.011482269
0002d0 98 ba 57 bc 03 e0 67 3e da 90 69 be de 36 56 bd
       -0.013167046 0.22644047 -0.22809163 -0.05229842
0002e0 a4 a1 4d 3d 75 40 3a bd 61 1f 8d 3e 5c 9e 0f 3e
       0.05020298 -0.045471627 0.27563003 0.14025253
0002f0 ca 09 80 3e 8c 70 8b 3e f0 6f 60 3e 57 02 2d be
       0.25007468 0.27234304 0.21917701 -0.16895424
000300 a1 8a ec bb 6b 1c f4 3d 35 34 50 bd 5f 00 1e bd
       -0.0072186743 0.11919483 -0.05083104 -0.038574573
000310 b4 06 7c 3e 16 4a c4 3d e8 9c 37 bd 36 f2 f4 3c
       0.24611932 0.09584443 -0.04482737 0.029900651
000320 39 95 9e bd 83 2f 41 bd e9 c1 6a 3e ac f2 ab bc
       -0.07743306 -0.04716445 0.22925533 -0.020989738
000330 ca 27 87 3d 86 eb f9 bb aa 68 47 3e 23 b5 49 3e
       0.06599386 -0.0076269535 0.1947352 0.19698004
000340 d1 1d b0 bd 43 35 0c be 4b 55 5b 3c 4f e9 c3 3d
       -0.08599437 -0.13692193 0.013387035 0.095659845
000350 09 34 74 be df e2 47 3d 47 b3 72 3e a3 a3 c5 bd
       -0.23847975 0.048800346 0.23701201 -0.09650352
000360 90 99 d3 3d a1 3d 3c 3e 33 8c 88 3e 26 b0 df 3d
       0.10332024 0.18382885 0.26669464 0.109222695
000370 1e 07 75 3c ae 31 28 ba 49 9f 65 3d 1b 4c 1f 3e
       0.01495531 -0.0006416094 0.05606011 0.15556376
000380 df 1d 0f be 15 bf fe 3d 57 07 2b 3e f4 c5 3a be
       -0.13976239 0.1243879 0.16702019 -0.18239576
000390 8f 87 20 3e b5 e9 10 3e 51 fb a9 3c 95 b5 e7 bd
       0.15676711 0.14151652 0.02074972 -0.11313931
0003a0 15 bb 07 3e 37 98 a0 be e6 d0 a2 bd aa 7e dc 3b
       0.1325496 -0.3136613 -0.079500005 0.0067289667
0003b0 65 85 53 3e f0 86 30 bb 85 36 e1 3c 32 b0 86 bd
       0.20656355 -0.0026935898 0.027491817 -0.06576575
0003c0 17 da 82 be 6c 94 1c 3d 88 8b 50 be 6f 29 4d bd
       -0.25557014 0.038227484 -0.20365727 -0.050088342
0003d0 98 0b 71 3d a5 87 9b bd 8e cb 57 3e 90 d4 56 3e
       0.058848947 -0.075942315 0.21073744 0.20979524
0003e0 c0 09 08 3e 24 68 c2 3d 2b 33 d7 3d 2b fc 6a bd
       0.1328497 0.094925195 0.105078064 -0.057369392
0003f0 9f fd 80 3e 75 46 97 3e 48 b2 30 be 54 c5 4e be
       0.25193498 0.29545942 -0.17255509 -0.20192462

bias f4 [15]
000000 77 6c 15 bb 9c c0 91 3e 0d 15 2b 3d 1c a1 74 3e
       -0.0022800246 0.28467262 0.041768122 0.23889583
000010 d6 57 66 3d f2 be 26 3e 77 92 38 bd 43 8e 30 3d
       0.05623611 0.16283777 -0.045061555 0.04310442
000020 ab 2c 05 3e be 43 a3 bd 0e 2d b3 3d b7 3d 89 3e
       0.1300532 -0.07971905 0.08748828 0.26804897
000030 79 19 70 3e 8d ec 82 3e 4f 43 cc 3d
       0.23447217 0.255711 0.099737756

weight f4 [1, 15]
000000 62 61 35 3e 69 d7 ac be 97 de 8a 3e 3f 54 2e 3e
       0.1771293 -0.33758095 0.27122948 0.17024325
000010 e9 b5 b2 3e 34 05 3a be 5a fc bc 3e 8c 48 8a 3e
       0.3490441 -0.18166047 0.3691128 0.27008474
000020 6f 30 b6 3e 53 7b 06 3e 8f 4f b8 be 98 22 b1 be
       0.35583827 0.13132982 -0.35998198 -0.34596705
000030 03 3c c5 be b0 d7 23 3e 3e 7e b2 be
       -0.38522348 0.16000247 -0.3486194
