Chignolin/OPES/chignolin_deepTDA.pt (torch, 28413 bytes, 7 tensors)

mean f4 [45]
0	0x3ec50577	0.38480732
1	0x3f1c34cc	0.6101806
2	0x3ec3cc57	0.38241836
3	0x3f6f94da	0.93586504
4	0x3f248f0d	0.6428078
5	0x3ec664bd	0.38748732
6	0x3f919d1f	1.1376075
7	0x3f66ca7b	0.9015271
8	0x3f12afe9	0.5729967
9	0x3ec42e12	0.383164
10	0x3f95cc5b	1.1702989
11	0x3f78b658	0.97153234
12	0x3f2e4513	0.6807415
13	0x3f1e3ce9	0.6181169
14	0x3ec4772f	0.3837218
15	0x3f98717e	1.1909635
16	0x3f7dda63	0.99161357
17	0x3f466746	0.7750133
18	0x3f3493fa	0.70538294
19	0x3f12ea0f	0.57388395
20	0x3ec4a661	0.38408187
21	0x3f99e80d	1.2023941
22	0x3f8768ac	1.0578818
23	0x3f654e1f	0.8957233
24	0x3f7115bb	0.94173783
25	0x3f52ad8a	0.8229605
26	0x3f1150d4	0.5676396
27	0x3ec3720c	0.38172948
28	0x3f97e7a8	1.1867571
29	0x3f8d476f	1.1037425
30	0x3f88304d	1.063974
31	0x3f9019db	1.125789
32	0x3f88bdbc	1.0682902
33	0x3f60a805	0.8775638
34	0x3f28601a	0.6577164
35	0x3ec383c5	0.3818647
36	0x3f9c34e9	1.2203647
37	0x3fa2c7f4	1.2717271
38	0x3f9f498e	1.2444322
39	0x3fadae3f	1.3568801
40	0x3fa56e48	1.292428
41	0x3f8d2397	1.1026486
42	0x3f72c9f7	0.94839424
43	0x3f228c3a	0.6349522
44	0x3ec3d8a9	0.38251236

range f4 [45]
0	0x3bc78f86	0.0060901074
1	0x3d942d0d	0.07235155
2	0x3bcb3512	0.006201395
3	0x3d50e39b	0.05099831
4	0x3d05166d	0.03249209
5	0x3bcb076d	0.0061959536
6	0x3deaa177	0.11456578
7	0x3d01b539	0.031666968
8	0x3d2df133	0.042466354
9	0x3bc71600	0.0060756207
10	0x3e1bcc46	0.15214643
11	0x3e0328a1	0.12808467
12	0x3e007aba	0.12546816
13	0x3d504a7d	0.050852288
14	0x3bc80028	0.0061035343
15	0x3e6af12b	0.22943561
16	0x3ea5bf58	0.32372546
17	0x3e850383	0.25979242
18	0x3e57442b	0.21022098
19	0x3cc9b943	0.024624472
20	0x3bc24c7f	0.005929529
21	0x3ecc90e8	0.39954305
22	0x3ef94f10	0.48693132
23	0x3ec4e6ce	0.3845734
24	0x3e6b44cf	0.22975467
25	0x3d3d21b8	0.046174735
26	0x3d3b39b9	0.045709345
27	0x3bc13e56	0.0058973236
28	0x3f1e9052	0.61938965
29	0x3f289a98	0.6586089
30	0x3ede891d	0.43463984
31	0x3e7fb726	0.2497221
32	0x3da41959	0.08012647
33	0x3d6fdd00	0.05856037
34	0x3d357792	0.044303484
35	0x3bcede50	0.006313123
36	0x3f3f6339	0.74760777
37	0x3f30b7f6	0.690307
38	0x3efc8198	0.49317622
39	0x3e8bcaa8	0.27303052
40	0x3de0e808	0.109817564
41	0x3dbab591	0.09116662
42	0x3da9e530	0.08295667
43	0x3d2966fd	0.041357983
44	0x3bca2199	0.006168556

weight f4 [30, 45]
0	0x3e33e164	0.17566448
1	0x3d614387	0.05499604
2	0x3dbe92d0	0.09305346
3	0x3d958985	0.073016204
4	0xbb2b7007	-0.0026159303
5	0x3e42e5a4	0.19032913
6	0xbd88a70a	-0.06672485
7	0xbd1d9f77	-0.038482156
8	0x3e4ddfa4	0.20104843
9	0xbdc4610a	-0.09588821
10	0x3e2cf2f7	0.16889559
11	0x3dbfa160	0.09356952
12	0x3e0392b5	0.12848933
13	0xbbe194a7	-0.006884176
14	0x3e2e2cfd	0.17009349
15	0x3d359556	0.04433187
16	0x3e66364b	0.22481649
17	0x3d8b0451	0.06787933
18	0x3d81382a	0.063095406
19	0x3dcdc96e	0.10048185
20	0xbdc3a627	-0.095531754
21	0xbc947c55	-0.018125692
22	0xbc88879d	-0.016666228
23	0x3d881122	0.06643893
24	0xbdf490c1	-0.11941672
25	0xbe546bab	-0.20744197
26	0xbe0e19c2	-0.13877013
27	0xbdabd053	-0.08389344
28	0x3cedef11	0.02904466
29	0xbdcce14d	-0.1000391
30	0x3db6086e	0.088883266
31	0xbdd3e6e0	-0.1034677
32	0xbd3512b5	-0.044207294
33	0x3d9f47cb	0.07777365
34	0xbe1fde52	-0.15612152
35	0x3db84794	0.089980274
36	0xbba73c5c	-0.005103631
37	0x3da5bed5	0.08093039
38	0xbd921afd	-0.07134054
39	0xbe02bb44	-0.12766749
40	0xbdcb3808	-0.099227965
41	0x3c2b5778	0.010457866
42	0x3d841262	0.06448819
43	0x3e3852d7	0.18000351
44	0x3e068b33	0.13139038
45	0xbd26bb5a	-0.040706016
46	0x3e146e8d	0.14495297
47	0x3cb35220	0.021889746
48	0x3e02c672	0.12771013
49	0xbe34c401	-0.17652895
50	0xbdba9c77	-0.091118746
51	0x3ce279be	0.027645942
52	0xbdf82145	-0.12115721
53	0x3d1326b8	0.035925597
54	0xbb934fdc	-0.004495604
55	0x3e014142	0.1262255
56	0xbd895852	-0.06706299
57	0xbdd1ad9b	-0.10238191
58	0x3dad105a	0.084503844
59	0x3ba41c36	0.005008246
60	0xbda238be	-0.07920979
61	0xbe57a80b	-0.21060197
62	0xbd569963	-0.052392375
63	0xbdfa39b9	-0.12218041
64	0x3da6b9dd	0.08140919
65	0xbc89a61a	-0.016802836
66	0x3c898f5f	0.016791997
67	0xbe45ce0a	-0.19316879
68	0xbe40317a	-0.18768874
69	0xbe18098a	-0.14847389
70	0x3dd911ec	0.105991215
71	0xbd630edb	-0.05543409
72	0x3e11aeb4	0.142268
73	0xbe6e81ab	-0.23291652
74	0xbe8375d3	-0.2567583
75	0xbe638e83	-0.22222333
76	0xbe28b8f1	-0.164768
77	0x3e334cd5	0.17509778
78	0x3e1280a9	0.14306892
79	0x3ddb4cd3	0.107080124
80	0xbdb205eb	-0.08692535
81	0xbe5bdd07	-0.21471034
82	0xbce9ca1e	-0.02853876
83	0xbe2bbb6c	-0.16770715
84	0x3c5e5779	0.01357066
85	0xbd6b46bc	-0.057440504
86	0x3db9139d	0.09036944
87	0xbdc5266b	-0.09626468
88	0xbdbdafbf	-0.092620365
89	0x3d2ef4bf	0.042713877
90	0x3cded488	0.027200952
91	0x3d100f82	0.03517104
92	0x3d90aa34	0.07063714
93	0x3e22af24	0.15887123
94	0xbe510e45	-0.204156
95	0xbdb0ee68	-0.086392224
96	0x3e68ace6	0.22722206
97	0x3c85b832	0.016323183
98	0xbddcb8d1	-0.107774384
99	0xbddbb25c	-0.10727379
100	0x3ca27d4b	0.019835135
101	0xbd8a6e1f	-0.06759285
102	0xbdd82c52	-0.105553284
103	0xbe1a5710	-0.15072274
104	0xbb6be96a	-0.003599728
105	0xbdf7dc78	-0.12102598
106	0xbe63dace	-0.22251436
107	0xbe2147be	-0.15750024
108	0xbe45b427	-0.19307004
109	0xbcf53a91	-0.029935153
110	0x3e27d7e8	0.16390955
111	0xbd89f9c3	-0.067370914
112	0xbd5ab682	-0.05339671
113	0xbe6d2f33	-0.23162536
114	0xbe258142	-0.16162589
115	0xbdd2f5c7	-0.103007846
116	0xbd990b5c	-0.0747287
117	0xbd87728b	-0.06613644
118	0xbe2be31e	-0.16785857
119	0xbe466a2c	-0.19376439
120	0xbdcdf8ce	-0.10057221
121	0xbe06000f	-0.1308596
122	0x3d7247a2	0.059150346
123	0xbd366d03	-0.044537555
124	0xbdfb6742	-0.12275554
125	0xbdaaec4e	-0.08345853
126	0xbe232d25	-0.1593519
127	0xbe640908	-0.2226907
128	0x3ca55175	0.020180443
129	0xbdf08f57	-0.1174609
130	0x3d89ebd0	0.06734431
131	0x3c101a96	0.008795401
132	0xbe09e3cc	-0.13465804
133	0x3da05c6a	0.078301266
134	0xbcf221a4	-0.029557057
135	0xbd33cbc2	-0.04389549
136	0xbe814a29	-0.25251892
137	0xbdfbef86	-0.12301545
138	0x3c74e7e8	0.014947869
139	0x3c24abce	0.010050727
140	0x3d7f9a5e	0.062403075
141	0xbe4fcb9d	-0.20292516
142	0x3de59572	0.11210145
143	0xbd4271fe	-0.047471993
144	0xbcd75cdf	-0.026289402
145	0xbcb37ec0	-0.021911025
146	0x3e42b5a8	0.19014609
147	0x3dfddd08	0.12395674
148	0x3e79723b	0.24359982
149	0xbdd1a633	-0.10236778
150	0xbd49c769	-0.049262438
151	0xbdc425f3	-0.09577551
152	0xbdc9b5f4	-0.09849158
153	0xbde948da	-0.113908485
154	0x3dd69a27	0.10478621
155	0xbd39c41e	-0.045353048
156	0x3d1e88d5	0.038704712
157	0x3de63b4e	0.1124178
158	0x3c2f9302	0.010716202
159	0xbdc5f12a	-0.09665139
160	0x3e609fde	0.21935984
161	0x3e21a0d8	0.15784013
162	0x3d75aee2	0.059981234
163	0xbdbbeba2	-0.09175803
164	0x3e14c8ea	0.14529768
165	0xbd64048a	-0.05566839
166	0xbd96cd72	-0.07363404
167	0x3e56bd6c	0.20970696
168	0x3d36ee32	0.044660755
169	0xbd52cf35	-0.05146714
170	0xbc41a979	-0.011820191
171	0x3dad88b2	0.08473338
172	0x3e2c0190	0.16797471
173	0xbd03e70e	-0.032202773
174	0xbdc8e168	-0.09808618
175	0x3c93dcd3	0.018049633
176	0xbd473223	-0.0486318
177	0x3dbe037f	0.092780106
178	0x3e5927de	0.21206614
179	0xbdceceb6	-0.10098021
180	0xbd815f15	-0.063169636
181	0xbbcffcbf	-0.0063472684
182	0x3d17b22f	0.037035163
183	0xbd6da7a5	-0.058021206
184	0x3df61c26	0.12017088
185	0x3be5244b	0.006992852
186	0x3cbb5f57	0.02287261
187	0xbd327ba6	-0.04357495
188	0x3cc1fac8	0.023679152
189	0x3dc24c5d	0.094872214
190	0xbcfee169	-0.031113343
191	0x3c95215c	0.018204384
192	0x3dc7d312	0.09757055
193	0x3df5461a	0.119762614
194	0x3c4ffbdc	0.012694325
195	0xbd0777ea	-0.033073343
196	0x3df87c06	0.121330306
197	0xbcd23583	-0.025660282
198	0x3e4b1b15	0.1983455
199	0x3cc6db3d	0.024274463
200	0xbd82a9bc	-0.063800305
201	0xbd37bad8	-0.044855922
202	0x3e516138	0.20447242
203	0x3ce87f29	0.028380947
204	0x3c53fdb5	0.012938906
205	0xbe3154e7	-0.17317544
206	0xbe318361	-0.17335273
207	0xbd9a084e	-0.07521115
208	0x3cffd4df	0.031229435
209	0x3e15b32c	0.1461913
210	0x3d87e445	0.06635336
211	0x3df0ba5f	0.117542975
212	0xbe69d410	-0.22834802
213	0xbd8c6ea1	-0.06857038
214	0xbd8eb31f	-0.069677584
215	0x3d62d52f	0.05537909
216	0x3daf53b3	0.08560886
217	0xbc14246d	-0.009041888
218	0x3c0c6523	0.008569035
219	0xbdd09fbc	-0.10186717
220	0xbe3d3b26	-0.18479595
221	0x3cfc6dab	0.030814013
222	0xbca49ee5	-0.020095298
223	0x3d94213b	0.07232901
224	0xbdac55a3	-0.084147714
225	0x3db97cc3	0.090569995
226	0x3d818a50	0.06325209
227	0x3d8f77b2	0.07005252
228	0xbde83a86	-0.113392875
229	0xbd87c79b	-0.066298686
230	0xbe2d61db	-0.1693186
231	0x3d976fa4	0.07394341
232	0x3cb05370	0.021524161
233	0x3e51f3fc	0.20503229
234	0x3def0fd5	0.116729416
235	0x3d0e6129	0.034760628
236	0x3d81d709	0.06339843
237	0xbd9606ab	-0.073254906
238	0xbe0d8973	-0.13821964
239	0xbe14add3	-0.14519434
240	0x3e3ac807	0.18240367
241	0x3d5c691a	0.05381117
242	0x3da50134	0.0805687
243	0x3d58b588	0.052907497
244	0xbd15cc24	-0.036571637
245	0xbde26948	-0.11055237
246	0xbccf1549	-0.025278704
247	0x3e0de7e4	0.1385799
248	0x3ce5655d	0.028002435
249	0x3e45818b	0.19287698
250	0xbe103076	-0.14080986
251	0xbddd4e47	-0.10805946
252	0xbd26cb53	-0.04072125
253	0x3bacf8dd	0.0052786903
254	0x3d3f220c	0.04666333
255	0xbd8a0860	-0.06739879

bias f4 [30]
0	0x3e31684c	0.17324942
1	0x3d11fdc2	0.035642393
2	0x3e0b1138	0.13580787
3	0x3e217dea	0.15770689
4	0x3e94e916	0.2908408
5	0x3d0ee675	0.03488775
6	0x3b0cf106	0.0021505966
7	0x3e90d511	0.28287557
8	0x3ded2e2e	0.11581074
9	0x3d062e7f	0.032759186
10	0x3d752f83	0.059859764
11	0x3e07ea33	0.13272934
12	0xbd892684	-0.066967994
13	0x3e681378	0.22663677
14	0x3e794f2c	0.24346608
15	0x3d9ed5a2	0.07755591
16	0x3d9e2eb2	0.0772375
17	0xbb505525	-0.0031789031
18	0x3e23dcd1	0.16002204
19	0x3e82882e	0.25494522
20	0x3d8cd0e7	0.068757825
21	0x3ea0c521	0.31400397
22	0xbc5932ff	-0.013256787
23	0x3d14dfb2	0.036346145
24	0x3de5acbe	0.112145886
25	0x3e05d082	0.1306782
26	0x3ea951cc	0.3307022
27	0xbe0b33d7	-0.13593994
28	0x3e963b10	0.29341936
29	0x3e95c44b	0.29251322

weight f4 [30, 30]
0	0x3e875fed	0.26440373
1	0xbe2404ed	-0.16017504
2	0x3e5503fd	0.20802303
3	0xbe4989ae	-0.19681427
4	0x3ea32492	0.31863838
5	0x3e24123d	0.16022582
6	0xbe14a63c	-0.14516538
7	0x3e54b3f3	0.2077177
8	0x3d4827fb	0.048866253
9	0xbc8d290c	-0.017231487
10	0x3c839b88	0.016065374
11	0x3e29ba16	0.16574892
12	0x3e4ead9c	0.20183414
13	0x3dadb901	0.08482552
14	0x3e6ac02c	0.2292487
15	0x3e7030ff	0.2345619
16	0x3e07d713	0.13265638
17	0x3e2b1043	0.16705422
18	0x3bf18073	0.0073700487
19	0x3cd9c87d	0.026584858
20	0x3b7edf2c	0.0038890345
21	0xbcb3e982	-0.021961931
22	0x3ab9d752	0.001417855
23	0x3e4a8f6f	0.19781278
24	0xbd32b0bc	-0.04362558
25	0x3d5803b2	0.0527379
26	0x3e014ecd	0.12627716
27	0xbe1a2b99	-0.15055694
28	0xbd4fec66	-0.050762556
29	0x3e423389	0.18964972
30	0xbcc93409	-0.024560945
31	0x3e152c45	0.14567669
32	0x3dc88b51	0.097921975
33	0xbe398e9e	-0.1812081
34	0xbe43a209	-0.1910478
35	0xbbfe8404	-0.0077672023
36	0xbce07225	-0.027398178
37	0xbdccb25d	-0.099949576
38	0x3da02f61	0.07821537
39	0x3e1f7e60	0.15575552
40	0xbd456bc8	-0.04819849
41	0x3e3b6788	0.18301213
42	0x3d951524	0.07279423
43	0xbe890381	-0.26760486
44	0xba9baee3	-0.0011877682
45	0xbe34bb27	-0.17649518
46	0xbdc677ea	-0.096908405
47	0x3d27368d	0.040823508
48	0x3cb2e5fc	0.02183818
49	0xbe1fa0fa	-0.15588751
50	0x3cc1171c	0.02357059
51	0x3e4667fd	0.19375606
52	0x3c183888	0.009290822
53	0x3d720762	0.059089072
54	0xbda1ce83	-0.07900717
55	0x3dd8213b	0.10553213
56	0x3dce9071	0.10086144
57	0x3d95158f	0.072795026
58	0xbe5c2859	-0.21499766
59	0x3cd60a34	0.026127912
60	0xbe412178	-0.18860424
61	0xbe0416b6	-0.12899289
62	0xbdf2315f	-0.11825823
63	0xbd44418d	-0.047914077
64	0xbe32093a	-0.17386332
65	0xbd825d04	-0.063653976
66	0x3c98ae40	0.018637776
67	0x3e6af01f	0.22943161
68	0xbe266cfc	-0.16252512
69	0x3ce4d9a9	0.02793582
70	0x3d09d003	0.03364564
71	0xbe195be5	-0.14976461
72	0x3d61b455	0.05510362
73	0x3e9e14e7	0.30875322
74	0x3e1e18c9	0.15439142
75	0x3d989f18	0.0745222
76	0x3e140500	0.14455032
77	0x3e01f375	0.12690528
78	0x3e8186ee	0.25298256
79	0xbd31a7a2	-0.043372758
80	0xbe1fafd1	-0.15594412
81	0x3e679f67	0.22619401
82	0x3e049821	0.12948658
83	0x3d24e313	0.040255617
84	0xbe06c166	-0.13159713
85	0xbe4af685	-0.19820602
86	0x3e92f4e0	0.2870245
87	0xbe197ac6	-0.1498824
88	0x3e9292a0	0.2862749
89	0x3eb2be4e	0.34910816
90	0x3da99b65	0.08281592
91	0x3c9c0055	0.019043127
92	0xbc9ad7d6	-0.018901747
93	0x3e49a52d	0.19691916
94	0xbda3cc24	-0.07997921
95	0x3e14c151	0.1452687
96	0xbd243100	-0.040085793
97	0x3e3ba953	0.18326311
98	0x3b36d43c	0.0027897498
99	0x3cb3f684	0.021968134
100	0x3d25dfab	0.04049651
101	0x3ddd796c	0.10814175
102	0xbe08d8aa	-0.13363901
103	0xbb67035d	-0.0035249807
104	0x3d84ab9b	0.06478044
105	0x3d437952	0.047723122
106	0x3e234c2f	0.1594703
107	0x3e0a089c	0.13479847
108	0x3cfa1a50	0.030530125
109	0x3e5e6c17	0.2172092
110	0xbd0ce3d9	-0.03439698
111	0x3d677a54	0.056513146
112	0x3cd192cf	0.0255827
113	0xbca4e6f3	-0.020129656
114	0xbe122991	-0.14273669
115	0xbe29d43a	-0.16584864
116	0xbd35a7b1	-0.044349376
117	0x3d364b7f	0.044505592
118	0x3e2f565e	0.1712279
119	0x3e9c7d27	0.30564234
120	0x3e8a023b	0.26954827
121	0xbe114bc7	-0.14189063
122	0xbda79917	-0.081834964
123	0x3cc10bbc	0.023565166
124	0x3e76f9cc	0.24118727
125	0xbd483fa4	-0.048888817
126	0xbd4bd637	-0.049764838
127	0x3e544f45	0.20733364
128	0xbd4c0923	-0.0498134
129	0x3c6a648a	0.014306197
130	0x3d195a9e	0.037439935
131	0x3da08cdc	0.07839367
132	0xbcdc5a6a	-0.026898582
133	0x3e913b3f	0.28365514
134	0x3e3b619f	0.18298958
135	0x3ea12fd1	0.31481794
136	0x3e863965	0.26215664
137	0xbcacd531	-0.021097751
138	0x3dae5f46	0.08514266
139	0x3dd17cf3	0.1022891
140	0x3e5e37c8	0.21700966
141	0x3dedad06	0.11605267
142	0x3e6493d0	0.22322011
143	0x3ea8e404	0.32986462
144	0xbdb5e8fe	-0.0888233
145	0xbe3d44a3	-0.18483214
146	0x3e17d860	0.14828634
147	0xbd97addc	-0.07406208
148	0x3e599907	0.21249782
149	0x3e115eb2	0.1419628
150	0x3e5590db	0.20856039
151	0x3e460829	0.1933905
152	0xbd0600c4	-0.032715574
153	0xbdb28d32	-0.08718337
154	0xbe00212f	-0.12512659
155	0xbcdc82e3	-0.02691788
156	0x3dee6414	0.11640182
157	0xbd8c5adb	-0.06853267
158	0xbc325ed0	-0.010886863
159	0x3d1fc5a5	0.039006848
160	0xbe12937e	-0.14314076
161	0x3e882718	0.26592326
162	0x3e1466f3	0.14492397
163	0x3da3d0c4	0.07998803
164	0xbd513f28	-0.05108562
165	0xbc2b7a65	-0.010466193
166	0x3cc1675a	0.023608852
167	0x3df26355	0.11835352
168	0xbd825de9	-0.06365568
169	0xbe2869c8	-0.16446602
170	0xbe328ef4	-0.17437345
171	0x3dc75323	0.09732654
172	0x3da184e5	0.07886676
173	0x3da184ff	0.07886695
174	0x3e644d62	0.22295144
175	0x3dcfeb0c	0.101522535
176	0x3c2edb17	0.010672352
177	0xbe1a93dd	-0.15095468
178	0xbe4713cc	-0.19441146
179	0xbdc4b994	-0.09605709
180	0x3c9a9107	0.018867983
181	0x3e38a2b2	0.18030813
182	0x3e7137f3	0.23556499
183	0xbe070199	-0.13184203
184	0xbd965eb7	-0.07342284
185	0xbd8fa9ad	-0.07014785
186	0x3dbe0bef	0.0927962
187	0x3cb3f9c0	0.021969676
188	0x3d98d0fd	0.07461736
189	0x3daf847c	0.08570191
190	0xbd18a4ea	-0.03726665
191	0x3dde3cbd	0.10851429
192	0x3c67196f	0.014105185
193	0xbe46deb6	-0.19420895
194	0xbd2bf24f	-0.04197913
195	0xbd5d800b	-0.05407719
196	0xbe0551ad	-0.13019438
197	0x3e2e2f87	0.17010318
198	0x3da0e7f2	0.0785674
199	0xbd7fb90f	-0.062432345
200	0xbe1e707d	-0.15472598
201	0x3d7c3b66	0.061580084
202	0xbde3e0d4	-0.11126867
203	0xbc9d2d95	-0.019186774
204	0x3da72fac	0.081633896
205	0x3e2de83e	0.16983125
206	0xbc3a5e50	-0.011375025
207	0xbc9e76fc	-0.019343846
208	0xbbb2dcd3	-0.005458453
209	0x3d9f5142	0.077791706
210	0xbdc29b8b	-0.09502324
211	0x3e4bb138	0.19891822
212	0x3e07da23	0.13266806
213	0xbe22084f	-0.15823482
214	0x3c772669	0.015084841
215	0xbd5d07bd	-0.053962458
216	0x3cc97862	0.024593536
217	0xbcf0bcac	-0.02938684
218	0xbd8d5ed5	-0.069028534
219	0x3e4d73aa	0.20063654
220	0xbe40087c	-0.18753237
221	0x3e11c727	0.14236127
222	0xbda24ff1	-0.07925404
223	0xbdae6bea	-0.08516677
224	0xbd3111df	-0.043229934
225	0x3dd6f133	0.10495224
226	0xbdcd5201	-0.10025407
227	0x3e0f8fb5	0.14019664
228	0x3dae0b56	0.08498256
229	0x3da85016	0.082184
230	0xbd36ccbc	-0.044628844
231	0x3e302003	0.17199712
232	0xbc963778	-0.018336996
233	0xbdf5cb32	-0.12001647
234	0x3e5db7ea	0.21652189
235	0xbdbfa487	-0.09357553
236	0x3a911492	0.0011068753
237	0xbd266abc	-0.040629134
238	0x3e18e8a6	0.14932498
239	0xbdaad7a8	-0.083419144
240	0xbe024a56	-0.1272367
241	0x3d482c63	0.048870455
242	0x3e3d9272	0.18512896
243	0xbd7b6aca	-0.06138114
244	0x3d1af7b0	0.03783387
245	0x3d5cead8	0.053934902
246	0x3e468b7e	0.1938915
247	0xbe5060b8	-0.20349395
248	0x3e1a3cb1	0.15062214
249	0x3e2b0e86	0.16704759
250	0xbc18f0f4	-0.009334791
251	0xbcdd77c8	-0.027034655
252	0x3d116a11	0.035501543
253	0xbd8d277a	-0.06892295
254	0xbe812f89	-0.2523158
255	0xbe441c40	-0.19151402

bias f4 [30]
0	0x3d353ab3	0.044245433
1	0xbb990116	-0.004669319
2	0x3af3aaa1	0.001859028
3	0x3deee48a	0.11664684
4	0x3e174c62	0.14775231
5	0xbcf092b8	-0.029366836
6	0x3e531aac	0.20615643
7	0xbd0c1fc7	-0.034209993
8	0x3d09490a	0.03351692
9	0x3e51c40e	0.20484945
10	0x3e4a0b36	0.19730839
11	0x3d52e0d0	0.05148393
12	0xbcc462dd	-0.023972923
13	0x3d7eeec5	0.062239427
14	0x3e2f33eb	0.17109649
15	0x3e3065db	0.17226355
16	0x3e19f50f	0.15034889
17	0x3d9953e6	0.074867055
18	0xbe52e814	-0.20596343
19	0xbe4cdbac	-0.20005673
20	0x3cb42497	0.021990104
21	0x3d8cc27e	0.06873034
22	0xb90df0de	-0.00013536538
23	0x3cfce78c	0.030872129
24	0x3e117529	0.1420485
25	0xbe39a06b	-0.18127601
26	0x3ca56507	0.020189775
27	0xbdc86ee2	-0.09786774
28	0x3d47a122	0.048737653
29	0x3ea1f8a7	0.3163502

weight f4 [1, 30]
0	0x3e813eb9	0.25243166
1	0xbde6bc14	-0.11266342
2	0x3e407795	0.18795617
3	0x3e24419a	0.1604065
4	0x3e3efcaf	0.18651079
5	0xbe77cc0a	-0.24198928
6	0xbe4c64d7	-0.19960342
7	0xbe3756d7	-0.1790422
8	0xbdbeeb54	-0.09322229
9	0xbe7f9752	-0.24960068
10	0xbddf533f	-0.1090455
11	0xbe27004c	-0.16308707
12	0x3e824ca9	0.25449112
13	0x3e9ce4d0	0.3064332
14	0x3e7c4a1b	0.24637644
15	0xbda1a7c8	-0.0789333
16	0xbe0a04f8	-0.13478458
17	0x3e31014f	0.17285655
18	0xbdb5b43c	-0.088722676
19	0xbda0e92d	-0.07856975
20	0xbe049887	-0.1294881
21	0xbe0d9db9	-0.13829698
22	0xbe8bff41	-0.2734318
23	0x3e855541	0.26041606
24	0x3e895a15	0.2682654
25	0xbdfed262	-0.12442471
26	0x3e319f8a	0.17346016
27	0xbdc28a91	-0.09499086
28	0xbde7be0d	-0.11315546
29	0x3e3d966b	0.18514411
