Chignolin/Training_files/chignolin2_deeptica.pt (torch, 35736 bytes, 12 tensors)

mean f4 [45]
000000 d1 a0 c4 3e 48 9e 28 3f 14 e7 c3 3e ba e5 74 3f
       0.38403943 0.6586652 0.38262236 0.95663035
000010 be e5 21 3f 54 7a c6 3e a2 95 99 3f 9c af 67 3f
       0.63241184 0.38765204 1.1998789 0.90502334
000020 3e d0 12 3f a6 55 c4 3e 57 be 99 3f 83 20 6b 3f
       0.57349 0.38346595 1.2011212 0.91846484
000030 3c 20 20 3f 74 1f 15 3f 30 95 c4 3e f4 78 8e 3f
       0.62549186 0.5825112 0.3839507 1.1130662
000040 df e3 4b 3f db 91 21 3f cd e3 0e 3f af f3 13 3f
       0.7964458 0.6311318 0.55816346 0.57793707
000050 99 9a c4 3e 99 e7 75 3f 55 a0 38 3f 94 d1 25 3f
       0.383992 0.96056515 0.7211965 0.64772916
000060 22 bc 43 3f 13 bd 4e 3f ef 24 10 3f 9f 78 c3 3e
       0.7645894 0.80757254 0.56306356 0.38177964
000070 ec bb 42 3f 9d 2f 22 3f 0f 9d 40 3f 29 fa 6d 3f
       0.76067996 0.633539 0.7523965 0.9295984
000080 45 f1 87 3f 60 47 60 3f c1 ad 2b 3f 3b 9d c3 3e
       1.0620505 0.8760891 0.67062 0.38205895
000090 ec 7e 31 3f 32 08 5b 3f c4 16 82 3f 6e d2 a1 3f
       0.6933429 0.8555938 1.0163198 1.2642343
0000a0 20 bd b2 3f de 1e 9f 3f ad 42 8e 3f 00 57 50 3f
       1.3963966 1.2431295 1.1114098 0.8138275
0000b0 db 5f 04 3f
       0.51708764

range f4 [45]
000000 db be c7 3b af 63 3b 3d c1 f7 c5 3b 5e 91 65 3d
       0.00609575 0.045749363 0.0060414975 0.056046836
000010 7e 0c ed 3c 9f a1 cb 3b 8f 18 c1 3d 57 2e d9 3c
       0.02893662 0.006214335 0.09428512 0.026511354
000020 02 ba 1d 3d 1f 48 c6 3b b4 32 f9 3d 39 44 f3 3d
       0.03850747 0.006051078 0.12167874 0.11878247
000030 c1 de eb 3d 23 dc 0a 3d 88 26 c5 3b 0d 2e 49 3e
       0.11517096 0.033901345 0.006016556 0.19646473
000040 4b 5f 76 3e 4f a0 49 3e 92 04 0c 3e 59 f4 1e 3d
       0.24059789 0.19690059 0.13673618 0.038807247
000050 e9 cf c5 3b c6 8f 91 3e eb 55 a1 3e be a3 79 3e
       0.0060367477 0.28430003 0.31510863 0.24378869
000060 96 09 ff 3d a4 bd 92 3d 94 0b 13 3d 04 1d c7 3b
       0.12453 0.07165077 0.035899714 0.006076457
000070 ac 4a cd 3e 94 16 d1 3e 20 a4 86 3e 5b c4 0b 3e
       0.40096033 0.40837538 0.26297092 0.13649122
000080 05 4b c4 3d eb a0 8a 3d 9b 2e 3a 3d d2 fb c6 3b
       0.09584621 0.06768974 0.045454603 0.0060725
000090 5a 92 fd 3e 74 89 cf 3e 19 dd 92 3e 6d 71 28 3e
       0.4952572 0.40534556 0.2868431 0.16449519
0000a0 0e 45 11 3e 20 2e fe 3d 9d 64 ef 3d e5 09 94 3d
       0.14186499 0.124111414 0.11689112 0.0722845
0000b0 59 10 17 3d
       0.036880825

weight f4 [30, 45]
000000 5e 75 8d 3d a5 e2 1c 3e 76 af c9 3c 10 b2 e2 3d
       0.06907152 0.15320833 0.0246198 0.11069119
000010 a2 16 da bc 61 d2 cf 3c f7 5e 04 bd fa 3a 0a 3e
       -0.02662212 0.025368871 -0.032317128 0.1349906
000020 69 39 2f 3e 3e ff aa bd e6 2d 4a 3e a4 60 75 3d
       0.17111744 -0.08349465 0.19744071 0.059906617
000030 b7 4c e5 3d b1 15 a7 3a 04 ae 11 3e b9 19 39 bd
       0.11196273 0.0012747553 0.14226538 -0.045190547
000040 21 1f 02 3e 38 c1 89 bc 74 f0 7a bd 31 b1 b0 bd
       0.12707187 -0.016815767 -0.06126447 -0.086275466
000050 3c ea 2b bd 02 6f d6 bc 2e eb 31 bd 51 c5 95 3d
       -0.04197143 -0.02617598 -0.043437175 0.07313026
000060 94 d6 2d be 58 3e d9 bd 99 7a 4b bc ac 17 85 bd
       -0.16976386 -0.10607594 -0.012419366 -0.06498656
000070 1d 0f 4d 3c df b7 ff bd 88 8f 00 3e 4a fb 1e be
       0.01251581 -0.124862425 0.12554753 -0.15525547
000080 6c 13 c6 3d 0f 63 89 3d c3 c2 74 3c 12 3e 1e 3d
       0.09671673 0.06708347 0.014939013 0.038633414
000090 cf 38 9b 3c 93 bc eb 3d fa e6 8e bc 51 eb 11 be
       0.018947987 0.11510577 -0.017444123 -0.14249922
0000a0 9c 36 b7 bc dc eb 17 bd c2 c0 6f 3c c6 9e dc 3d
       -0.022364907 -0.037090167 0.014633359 0.10772471
0000b0 9e 16 cc 3c 4b 34 5c bd 8f 21 ab bb c5 11 94 3d
       0.024913128 -0.053760808 -0.0052225064 0.07229952
0000c0 70 3c f4 3d 8a 9c 02 be 19 6b aa bd 1e 69 19 bc
       0.1192559 -0.12755027 -0.083212085 -0.009363441
0000d0 8d ae 36 bd 9d 3a bf 3d c9 fa 94 3c db 70 4f 3e
       -0.04460006 0.093373515 0.01818599 0.20257895
0000e0 fc 0c 49 3d 1e 0c fe 3c d4 8f 3c 3e 24 10 98 bd
       0.04908465 0.031011637 0.18414241 -0.074249536
0000f0 72 c2 6d bd 13 3a 56 be 45 16 10 ba f4 2e f4 bd
       -0.058046766 -0.20920591 -0.00054964825 -0.11923018
000100 bf ac 05 3e 98 95 91 bd e4 8a bd 3d 6e 4d 23 be
       0.13054179 -0.07108611 0.09255007 -0.15947506
000110 6a 67 1d be ce a0 5e bd 69 2e 3a 3e c6 4b d7 bb
       -0.1537148 -0.054352574 0.18181767 -0.006570312
000120 82 0d ca 3d 9c 52 54 be 34 b1 7d be 6c fa 70 be
       0.09865858 -0.20734638 -0.24774629 -0.23533028
000130 e1 ce 60 bd 54 4f 03 3e a8 a0 a7 3d c2 c9 d6 3d
       -0.054884795 0.1282323 0.081849396 0.10487701
000140 c9 89 9c bd 16 8f 55 be d5 66 ea bc 17 a9 50 be
       -0.07643468 -0.20855364 -0.028613487 -0.20377003
000150 83 da 5c 3e 22 67 0d 3d e6 bc cb 3c 52 4a f0 3b
       0.2156773 0.034522183 0.024870347 0.0073330784
000160 d5 61 5c 3d bb 10 c8 bc 9e 97 df 3c be 6d c4 bd
       0.053804237 -0.02442204 0.027293976 -0.09591244
000170 0a a1 22 3d 3e 6b 16 3a af 75 1f be 75 32 a4 bc
       0.03970436 0.0005738026 -0.15572236 -0.020043591
000180 6b 2c 31 3e f5 8f 44 3b 5a 7c 1d be d3 3f e2 bd
       0.173021 0.0029993032 -0.15379468 -0.1104733
000190 66 c2 0a bc 87 e7 29 3d 77 14 27 bd e9 5c 02 3e
       -0.0084692 0.041480567 -0.040791 0.12730755
0001a0 71 2d 1e bd fa 07 d5 3c 8d f6 26 be 11 dd 89 bd
       -0.038617555 0.02600478 -0.16304989 -0.06731618
0001b0 34 f5 fb bd 2f 39 72 3d 7e ce 73 3d fe f3 99 3d
       -0.12302628 0.059136566 0.0595231 0.07517241
0001c0 2a c9 9b bb ff 55 0f be 2e a8 c7 bd 08 4a 19 3d
       -0.0047542052 -0.13997649 -0.097488746 0.037424117
0001d0 61 e5 7c bd c8 de 27 bd a9 43 66 bd 8e 76 22 be
       -0.06174219 -0.040983945 -0.05621687 -0.15865538
0001e0 aa 2e 4e bc 13 a7 ab bd e5 76 86 3d 14 45 8a 3c
       -0.012584368 -0.08381476 0.06565646 0.016878642
0001f0 db 54 2d be 54 ce f1 bc 8b 11 e3 bd 54 d6 62 be
       -0.16926901 -0.02951733 -0.110873304 -0.22152072
000200 f4 32 a4 3d 28 40 8f bd 6e 86 5f 3e 05 e9 12 3e
       0.08017531 -0.06994659 0.21828625 0.14346702
000210 cb 0a ad bd 91 4f 52 3e 6c 58 0f be f4 58 8e bd
       -0.08449324 0.20538165 -0.13998574 -0.0695056
000220 59 75 b5 bd 4d 03 04 be 8d 6d 3d bc 6a 70 e9 bc
       -0.08860273 -0.12891884 -0.0115617635 -0.028495986
000230 0a 20 c9 3d 45 ac 20 be 51 a6 28 3d b1 fc fc bd
       0.09820564 -0.15690716 0.041174237 -0.123528846
000240 2d 6f 3f bd ae d7 61 3d d1 20 f4 3d 83 2b 05 3e
       -0.046736885 0.05513733 0.11920322 0.1300488
000250 bc fc c8 3d 30 cc b3 bd 01 3a 78 3c d0 fe a6 bd
       0.0981383 -0.0877918 0.015150548 -0.081540704
000260 03 78 94 bd 41 17 04 be b1 9e 1e 3e 19 eb 99 3c
       -0.07249453 -0.12899496 0.15490223 0.018788861
000270 e1 38 a0 3d a5 47 94 3d d4 fc f4 3c c5 b9 15 be
       0.07823349 0.072402276 0.029905714 -0.14621647
000280 64 be 9e 3d 35 51 0d 3c 22 76 bb 3c c5 fe f5 bd
       0.07751158 0.008625318 0.022883479 -0.12011484
000290 7e 84 c4 3d 3e 7f 2b 3d 99 4d 97 bd 33 81 d0 3d
       0.095955834 0.041869394 -0.073878475 0.10180893
0002a0 b6 67 06 3d 2f 0e 0f 3d bd 65 1f bd b3 d7 9f bd
       0.03281375 0.034925636 -0.038915385 -0.07804813
0002b0 02 9a e5 3d 18 cc 10 bd 86 73 c7 bd 76 ed 84 bd
       0.11211015 -0.03535089 -0.09738831 -0.064906046
0002c0 cb eb 00 be 92 19 32 3e 1e 84 ad 3d 62 b9 d6 bd
       -0.12589948 0.17392567 0.08472465 -0.10484578
0002d0 e6 d1 1d 3d 58 b9 69 3d 7f 8d d4 bc 72 fe a5 bd
       0.038530253 0.057061523 -0.025946377 -0.08105172
0002e0 ee 7f d6 3d 5e 63 44 3d b2 87 41 3d c5 74 31 bc
       0.104736194 0.047946326 0.04724855 -0.010831063
0002f0 7d df 21 bd 47 d5 0c 3d 7e ca 90 bd 28 39 27 bd
       -0.039519776 0.034383085 -0.07069872 -0.040825993
000300 c4 0f 83 3d bb 4f 2c 3e 51 97 33 3d a7 da 8c bd
       0.063994914 0.1682729 0.04384548 -0.06877642
000310 15 4b ee 3b 12 39 33 bd 98 dd 39 3d 22 20 9a bb
       0.007272134 -0.0437556 0.045377344 -0.0047035376
000320 fc b1 fa bd 34 1d d9 bd db 39 e5 3d 60 79 0a 3d
       -0.12240979 -0.10601273 0.11192676 0.03380716
000330 17 7d 2d bd 04 36 c1 bd a6 b3 13 bd 00 39 fa bd
       -0.042355623 -0.09434131 -0.036059998 -0.12217903
000340 98 d4 57 bd 2e 9c 60 3d 81 70 ba 3d b8 17 b2 3c
       -0.05269298 0.054836445 0.0910349 0.021739826
000350 56 1e 02 be 83 f0 8a bd d1 12 e3 bc 3c 65 ba 3d
       -0.12706885 -0.06784155 -0.027718933 0.0910134
000360 b5 80 43 3d 6e ea 3a bd 18 60 63 3d a3 6d 0f be
       0.047730166 -0.045633726 0.055511564 -0.14006667
000370 91 6c d1 bd a8 ee df 3d b1 95 19 be 14 ee 7c bd
       -0.102257855 0.10934192 -0.14998509 -0.061750486
000380 14 3d 71 bd 2d 5d 02 3c 71 ba 1c 3e cb 2c 0d 3d
       -0.05889614 0.007956785 0.15305497 0.034466546
000390 cb 0d 8c bd c2 9e 9d bd 7f 4a 4c bd 0e 93 31 3d
       -0.06838568 -0.07696296 -0.049875733 0.043353133
0003a0 4f f4 b2 3d 6f c4 11 bd e1 99 ee 3c 8c 92 8b 3d
       0.087380044 -0.035587724 0.02912611 0.06815061
0003b0 8c 66 23 3d 26 92 82 bd 22 6d a5 bc 03 5d ea 3b
       0.03989272 -0.06375532 -0.02019364 0.007152201
0003c0 28 b1 29 3c d0 99 31 be b2 63 c8 bd 85 8a 51 be
       0.010357179 -0.17343831 -0.0978464 -0.20462997
0003d0 50 32 db bd 53 80 13 be db 8f 10 be 29 02 32 bd
       -0.10702956 -0.1440442 -0.14117377 -0.04345909
0003e0 e0 11 84 bd b0 41 7e bc d3 41 21 bc 03 bf 38 be
       -0.06448722 -0.015518591 -0.009842354 -0.18041615
0003f0 c5 47 5a 3d 7c 23 46 be b3 0b 56 be bf c4 60 be
       0.0532911 -0.19349474 -0.209029 -0.21950053

bias f4 [30]
000000 ab 16 e6 3c ed 9a 70 3d 80 9c c6 3d 25 64 33 3d
       0.02808698 0.0587415 0.09697819 0.043796677
000010 83 56 19 3e e5 1a 8d 3e 91 0c 1b be 62 71 86 3d
       0.14974408 0.2755958 -0.15141512 0.06564595
000020 d5 5f 70 bc c2 6b 2d bd bb 3f 8b bd 26 9a 94 3d
       -0.014671286 -0.042339094 -0.06799265 0.07255964
000030 81 04 00 be 61 5a 64 3d 80 a0 86 3e db 64 06 be
       -0.12501718 0.055750255 0.26294327 -0.13124411
000040 f0 82 2d be b4 36 e9 bd 0c d7 03 3d a7 29 11 3e
       -0.1694448 -0.11387387 0.032187507 0.14176045
000050 fc 91 a0 3c 0d 35 0c 3e e4 67 b5 bc 31 f4 cc bd
       0.01960086 0.13692112 -0.022144265 -0.10007513
000060 15 45 70 3d 51 ed d8 3c 19 dd 51 3e 85 65 8d 3d
       0.05865963 0.026480349 0.20494498 0.06904129
000070 a7 6f ac 3d 29 1d 8a 3d
       0.084197335 0.06743843

weight f4 [30, 30]
000000 e5 88 11 3e 8d da 78 be ff 3c 06 3e c6 5e be bd
       0.14212377 -0.2430212 0.13109206 -0.0929542
000010 92 36 2a 3e 10 a5 1c bd 30 bd 51 be bc 39 db 3b
       0.1662238 -0.038243353 -0.20482326 0.006690232
000020 73 71 ef bc 4f 2f 48 be d0 16 98 bd e1 5e c3 3b
       -0.029228901 -0.19549297 -0.07426226 0.005962238
000030 a0 9f e5 3d 8a 4e 58 bd c4 0a da 3d 0b a7 e7 bc
       0.11212087 -0.052809276 0.10646585 -0.028277894
000040 a4 b2 9c 3b 96 c7 45 3d 4a 5c 63 bd 44 75 0f be
       0.004782038 0.048286043 -0.055507936 -0.14009577
000050 ff e1 65 bd 80 af 24 be 65 66 79 bd 19 76 d2 3c
       -0.05612373 -0.16082573 -0.060888667 0.025691079
000060 89 fc 12 be e9 6a 0c 3b 3f 18 c1 bc 02 09 a4 bb
       -0.14354147 0.0021426028 -0.023571132 -0.0050059566
000070 9d 69 e5 bd 63 f9 15 3d 27 50 28 bd a3 d1 2a 3c
       -0.11201785 0.036614787 -0.041092064 0.010425958
000080 77 ec 37 3d ca 90 0c be 2b b0 1e bd c0 98 18 bd
       0.044903245 -0.13727108 -0.038742226 -0.03725505
000090 7f 39 77 bd a7 39 dd 3c 7c c8 cf 3d ba 76 d0 3d
       -0.060357567 0.02700503 0.10145661 0.10178895
0000a0 13 e7 b3 3d f5 85 67 3e 49 21 69 bd 26 c3 d2 bd
       0.08784308 0.22609694 -0.05691651 -0.10291128
0000b0 c8 66 92 3c ce b5 9c bd 6e 4e 94 3c 82 ad d5 bc
       0.017871276 -0.07651864 0.018103804 -0.026083712
0000c0 5b 5e 33 bc b4 f8 1c bd 8b 4e 46 3e 43 a5 bc 3d
       -0.010947789 -0.03832312 0.193659 0.09211209
0000d0 de 89 9e 3d ed 3f 35 3e 20 6f 18 be a8 14 e8 3d
       0.0774114 0.17700167 -0.14886141 0.11332065
0000e0 e3 ff 8d 3d 28 72 87 3d 47 2d 23 be 54 83 e8 3d
       0.06933572 0.066135705 -0.1593524 0.11353174
0000f0 ad bc 17 be 73 29 26 3d f0 f6 d2 bb 1f b3 97 bd
       -0.14818068 0.040566873 -0.0064381287 -0.074072115
000100 f2 85 5e be 79 b2 0f be 79 d0 b1 3d be eb 35 bb
       -0.21730784 -0.14032926 0.08682341 -0.0027758921
000110 61 dc 1a be 4e 9b a5 bd dd 96 3c bd df b4 44 be
       -0.1512313 -0.08086263 -0.046042312 -0.19209622
000120 bc 01 1b 3e 84 e8 3f 3e 99 32 6c bc 24 87 6b be
       0.1513738 0.18741041 -0.01441636 -0.23000771
000130 fa e4 45 3d 2b b7 5e 3c 43 3c f7 3d 00 ff 17 be
       0.048314072 0.013593475 0.12072041 -0.14843369
000140 75 8f 3c be d1 2e a3 3d bd d8 cd bc 8c 53 09 be
       -0.184141 0.07967914 -0.025127763 -0.13410777
000150 e6 2e 10 bd ea 3d 2b be 2b 79 ee 3d 43 33 29 bd
       -0.035200976 -0.16722837 0.11644205 -0.041308653
000160 0c 7a 13 3e 03 9e 27 3e cd 3c 65 bb 49 f5 b1 3d
       0.14402026 0.1636887 -0.0034978867 0.086893626
000170 02 85 05 bd f0 33 06 3e 30 52 2a be f1 0c ef 3d
       -0.03259755 0.1310575 -0.16632915 0.1167239
000180 60 47 99 bd 11 4b b4 3d 04 83 0a bd 4b 34 8a bd
       -0.07484317 0.0880338 -0.033816352 -0.06748255
000190 43 53 77 bc 2e b5 eb 3d 3c 65 97 bd 5a a3 93 bd
       -0.015095535 0.11509167 -0.07392356 -0.07208891
0001a0 fc b2 0f bd ea 64 4b bd 7c 42 96 3d 42 51 d8 3d
       -0.035082802 -0.049656786 0.073369 0.10562374
0001b0 97 5d 6c bd 53 1d 12 3e f7 ff 99 bd ae 35 06 be
       -0.05770644 0.14268999 -0.075195245 -0.13106415
0001c0 46 78 f8 bd 2f 4d db bd e1 5c fb bd 56 52 36 be
       -0.12132315 -0.10708081 -0.122735746 -0.17804846
0001d0 cc a2 09 be 51 41 35 3b fc 74 cc 3d 45 a3 36 3e
       -0.13441008 0.002765734 0.099832505 0.1783572
0001e0 61 80 0f 3e 2c bd 0b bd 2f a9 27 3d 04 f4 f8 bd
       0.14013816 -0.034115955 0.04093283 -0.12155917
0001f0 50 c2 8a 3d 10 c9 54 be 0c 0b 00 3e 73 23 a2 3d
       0.067753434 -0.20779824 0.12504214 0.07916918
000200 71 c1 37 3d 5d a1 8e 3d 8c 0d b6 bd fe 3b fe 3d
       0.044862214 0.06964371 -0.088893026 0.12413786
000210 b2 91 99 3d 0c 92 d4 3d 1a fa 0d 3d 65 d7 55 3d
       0.07498492 0.10379419 0.034662344 0.05220737
000220 1d e2 e6 3d f9 24 db 3d 52 ac 31 3e 4e 5f 6c bd
       0.112735964 0.10700411 0.17350891 -0.057708077
000230 f5 0a f7 3d e6 40 9d 3d 77 7a 27 3e 5a b3 68 3e
       0.12062637 0.07678394 0.1635531 0.22724667
000240 f8 4c f2 3c 06 49 de bd 90 e6 09 3c 79 71 4f 3d
       0.029577717 -0.10853772 0.008416787 0.050645325
000250 12 d9 10 3d cc 44 19 bd 30 58 25 3e b5 2c 64 3d
       0.035363264 -0.037419125 0.16146922 0.0557067
000260 86 75 00 be a7 73 a7 3c c6 1b ad bb 3b a5 17 be
       -0.12544832 0.02044089 -0.005282852 -0.14809124
000270 d3 a7 04 3d ed 59 31 bd 42 79 c3 bd 66 ad b6 bd
       0.032386612 -0.04329865 -0.095446125 -0.08919792
000280 78 5a 9e bd c9 45 33 3e 0b e7 0c 3d 37 f8 2e 3e
       -0.07732099 0.1750709 0.034400027 0.17086874
000290 a9 db 22 3d cf 49 2c bc 27 1f 96 3d 63 a7 45 3d
       0.039760265 -0.010515644 0.073301606 0.048255336
0002a0 b1 69 ff bd ba 6a db bd 7d d0 16 bd 1c f8 7d 3c
       -0.12471331 -0.10713716 -0.036819924 0.015501048
0002b0 ff 45 9b 3d bc eb d7 3d 9c fc 28 3e 9d b5 e9 3c
       0.0758171 0.1054301 0.16502613 0.028528983
0002c0 d0 85 4b bd 83 2a 00 be ae ae 1e be 33 f5 a5 bd
       -0.04968816 -0.12516217 -0.15496323 -0.08103409
0002d0 cb 9f 73 3d 96 68 80 3d 31 cd 0e 3e 2c d2 84 bd
       0.059478562 0.06269948 0.13945462 -0.064853996
0002e0 d8 ee aa bb 8b fd ae bd 89 dd 17 bc 8d b7 d4 3d
       -0.0052164607 -0.08544453 -0.009269127 0.10386572
0002f0 82 04 81 bc d2 18 34 3c 4c 6f 03 3d 41 55 52 3d
       -0.01574922 0.010992246 0.032088563 0.051350836
000300 e9 2d 99 bd ab 91 0a be bd f5 18 3d 3a 69 34 bd
       -0.0747946 -0.1353213 0.03734373 -0.044045664
000310 a6 3f bd bd 69 e7 bb 3d 10 16 50 bb 82 73 b9 bc
       -0.092406556 0.09174997 -0.0031751432 -0.022638086
000320 f5 df a3 bd c5 d7 e0 ba 29 aa 18 be 88 79 ae 3d
       -0.08001701 -0.0017154148 -0.14908661 0.08519274
000330 f5 a3 e1 3b c6 7f 94 3d 96 e7 fa 3c 81 a5 05 3d
       0.0068860003 0.07250933 0.030628007 0.03262854
000340 d2 b4 62 3d cb 17 14 3e f3 31 1c be 12 a5 5d 3d
       0.055348225 0.14462201 -0.15253429 0.0541125
000350 bf fd c8 3c bf 27 06 be 66 7b 59 3d a9 0e 2c be
       0.024535058 -0.131011 0.053096198 -0.16802467
000360 f8 fb 89 bd b5 e2 e6 bd f9 ff 29 be fa 08 05 3e
       -0.06737512 -0.1127371 -0.16601552 0.12991706
000370 01 d5 32 be d2 d3 a4 3d f2 51 5f be 0f b6 01 bd
       -0.17464067 0.08048214 -0.21808603 -0.031667765
000380 40 a9 a8 3c ec f1 eb 3d 2a 34 94 bd 27 30 57 3d
       0.020588517 0.11520752 -0.07236512 0.052536156
000390 30 27 84 3c 87 bf c0 3d 8f 36 9b 3b e1 c5 bb 3d
       0.016131967 0.09411531 0.0047367285 0.09168602
0003a0 eb e4 c3 bd 9c e9 01 be 69 e5 12 3e 12 10 34 be
       -0.09565147 -0.12686771 0.14345326 -0.17584255
0003b0 28 78 2e 3a c6 24 e9 b8 eb b2 3c 3e 36 eb 84 bc
       0.0006655478 -0.000111171554 0.18427627 -0.016225439
0003c0 80 29 13 be c0 51 28 bd 91 e1 c4 3d ae fb 91 3d
       -0.143713 -0.041093588 0.09613336 0.07128082
0003d0 ec dc 13 3e 3f 48 60 3c ea f8 b6 3d 4a fc 49 be
       0.14439744 0.0136891 0.08934195 -0.19725147
0003e0 33 2f 11 3e ad bd 86 3d 2b 35 11 3d 3f a4 f6 bd
       0.14178161 0.065791465 0.035451096 -0.12043046
0003f0 1e 7b c3 bc cd 56 09 3c 4c b6 12 be 7c e1 0e be
       -0.023862418 0.008382511 -0.14327353 -0.13953203

bias f4 [30]
000000 a0 6a fe bd d7 66 06 be 6b b3 2b be 38 a8 b9 3b
       -0.12422681 -0.13125168 -0.16767661 0.005665805
000010 16 f2 0f 3d ec 16 00 be d4 41 d7 3d 91 0a 86 bd
       0.03514298 -0.12508744 0.105106026 -0.06544984
000020 9f d5 a6 bd a5 3c 16 3e ec 01 13 3e d2 fe 97 bd
       -0.08146214 0.14671572 0.14356202 -0.0742165
000030 e4 6e 07 be a0 f5 29 be 85 50 ef 3c 9e 1e 4f be
       -0.13225895 -0.16597605 0.0292132 -0.20226523
000040 aa 2c a7 3d 6c 1b 90 bd 6f 27 75 be ad c6 1b be
       0.08162816 -0.0703648 -0.23940824 -0.15212508
000050 79 f9 dd bc 05 2e 22 bc 38 df ba bc ff 0c fe bd
       -0.027096497 -0.009898667 -0.022811517 -0.124048226
000060 09 94 d6 bc f2 67 27 be 30 ff e9 bd 40 ca 0f be
       -0.026193636 -0.16348246 -0.11425626 -0.14041996
000070 b8 2f 2a bd be ec 26 3e
       -0.041549414 0.16301247

weight f4 [5, 30]
000000 d3 25 8b 3d 2a ca 0b bd ac eb 2e 3d 48 f8 52 3d
       0.06794324 -0.034128346 0.042705223 0.05150631
000010 f8 e2 c7 bc 3d a6 ff bd 82 58 d2 bd 62 50 0f be
       -0.02440022 -0.12482879 -0.10270788 -0.13995507
000020 18 87 8b bc f9 97 4a be fa 55 9c bc e4 b4 8c bd
       -0.017032191 -0.19784535 -0.019083966 -0.0687044
000030 65 4f 20 3e 93 f2 19 3e 86 09 d4 3d a9 79 70 bd
       0.15655287 0.15033941 0.10353379 -0.058709774
000040 e6 5d 4a bd 05 d0 0e 3d af ef 1c be 59 a8 a2 bd
       -0.049405955 0.03486635 -0.15325807 -0.07942266
000050 80 5e 8e bb 7d 3e 64 bd 87 ab 6c be 94 76 b5 3d
       -0.0043447614 -0.055723656 -0.23112307 0.088605076
000060 20 43 f6 3d 7c 1b 74 bd c3 14 a3 3d 2c 3f 15 bd
       0.12024522 -0.059596524 0.07962944 -0.0364372
000070 c4 77 42 bc 8a 86 b9 bb 4c 1e 2a 3e 3b 9f 0d 3d
       -0.011869375 -0.0056617903 0.1661312 0.034575682
000080 de 71 07 be 51 de 96 bc 13 ce bb 3d 35 be 41 3d
       -0.1322703 -0.018416556 0.09170165 0.047300536
000090 da 10 71 3b 5b e9 0a bd 3d 36 8b bd d0 24 11 bd
       0.0036783726 -0.03391395 -0.067974545 -0.035435498
0000a0 bf bf ca bd eb 0d a7 3c e2 99 1b 3d c0 46 21 3e
       -0.09899854 0.020392379 0.03798855 0.15749645
0000b0 e5 00 34 bd dd 59 0d be a8 1d d8 3d db 0b 9d 3d
       -0.043946166 -0.13803811 0.105525315 0.07668277
0000c0 62 99 ec 3a 28 08 84 3d 96 24 40 bc bb 9a 16 be
       0.0018051083 0.06446868 -0.011727473 -0.14707462
0000d0 59 43 bb 3c 06 7c 88 bd 2e 38 2a 3e 0b 7e 23 3e
       0.022859262 -0.066642806 0.16622993 0.1596605
0000e0 0c 36 c9 bc 6b e3 39 3e 8a 96 d5 bd 27 a7 28 3e
       -0.024561904 0.1815316 -0.10429104 0.16470014
0000f0 72 03 25 3e 59 db 7d 3c c8 61 e3 bd 5a 5a f7 bc
       0.16114596 0.015494191 -0.11102635 -0.03019445
000100 ac 55 02 bd fd 4f d1 bd fd 7d 31 be 34 d1 ce 3d
       -0.031819984 -0.10220335 -0.17333217 0.10098496
000110 1b 31 86 bd d7 e0 92 3b b4 a2 10 be 64 e0 f5 bb
       -0.06552335 0.0044823694 -0.14124566 -0.007503556
000120 9e cc 7e bd 99 ef 18 be 48 b6 10 3d aa 53 99 3e
       -0.062206857 -0.14935149 0.035330087 0.29946643
000130 d8 3d 3b 3e 7e 63 25 bd 84 40 43 3e 4c f1 15 be
       0.1828531 -0.040378086 0.1906758 -0.14642829
000140 51 31 44 be bc 7b b2 3c c2 66 a0 bc 70 5d 35 be
       -0.19159438 0.021787517 -0.019580249 -0.17711425
000150 bc ad d4 bd 66 8b 50 be 1b ab 0b 3e 8b b4 ad 3d
       -0.103847 -0.20365676 0.1363949 0.084817015
000160 bc da 6c 3a a0 4c de bd 77 86 15 be db 08 ae bd
       0.00090352795 -0.10854459 -0.14602076 -0.08497783
000170 ba a2 13 bd da 68 13 3e 50 94 1a 3d e8 d7 0a be
       -0.03604386 0.14395466 0.037739098 -0.13558924
000180 4b 02 c6 3d e6 c0 3d bc 4f 6a 24 be 15 81 3f 3d
       0.09668406 -0.011581635 -0.16056179 0.04675396
000190 4a 3b 42 be dd ed 66 3d bd c4 8e 3e b7 98 08 be
       -0.1896793 0.056379188 0.27884474 -0.13339506
0001a0 43 99 e4 bd 3c 66 80 3e d4 94 18 be 3f 4d 80 3e
       -0.11162045 0.25078 -0.14900523 0.25058934
0001b0 65 47 7d 3d 96 82 90 3d 6e b7 1f be bf d1 ca bd
       0.061835665 0.07056157 -0.15597317 -0.09903287
0001c0 6e 8d 94 3d cd 14 93 3d 70 e4 50 3e 7b 1a b7 3d
       0.07253538 0.07181702 0.20399642 0.089405976
0001d0 24 59 12 3d 6d 96 ed bd 48 d7 ff 3d ed 16 b6 bc
       0.035729542 -0.11600957 0.124922335 -0.022227729
0001e0 60 d0 0f 3d 27 c1 23 be 2f c5 37 be 0e a3 16 3e
       0.03511083 -0.1599165 -0.17946313 0.14710638
0001f0 78 e0 18 be a6 47 0c 3e 99 b5 a5 3b f5 b4 11 3d
       -0.14929378 0.13699207 0.0050570485 0.035572965
000200 fd 5b 13 3e 4b 91 e6 bd f3 12 09 bd fc f1 4a 3c
       0.1439056 -0.11258181 -0.033465337 0.012386795
000210 54 13 18 3d 27 c8 2a be a7 3b 5a 3d 97 81 2b be
       0.037127808 -0.16677915 0.053279545 -0.16748653
000220 fc b4 b5 3b ce 90 fb 3d 95 a7 3c bd 53 38 41 3c
       0.0055452567 0.12283479 -0.046058256 0.011793214
000230 67 e6 d2 ba d0 ea 24 3e ff 4b b8 3d 36 e1 23 3d
       -0.0016090394 0.16105199 0.0899887 0.0400097
000240 79 85 13 be 23 fc 79 bd 40 11 c0 3d 91 3c fc 3d
       -0.14406385 -0.061031472 0.0937829 0.123162396
000250 76 7d ba 3d 9c a4 f1 bd
       0.09105961 -0.11798975

bias f4 [5]
000000 fa 8f 19 3e f5 85 11 bc 9c 4d 1d 3e 94 82 0f 3e
       0.14996329 -0.0088820355 0.15361637 0.14014655
000010 3a 86 bf 3c
       0.023379434

evecs f4 [5, 2]
000000 c9 af ac 3e ad 6a 2a 3c 11 8a 43 bf aa 7f c4 be
       0.33727863 0.01040141 -0.7638255 -0.3837865
000010 1d 75 2c be 1b 1d 0b 3f 86 1d 48 3d e0 13 3b 3f
       -0.1684155 0.54341286 0.04885628 0.730772
000020 5b 87 05 bf 9e 38 1c be
       -0.5215966 -0.15255973

mean f4 [5]
000000 9b 90 75 3e 56 52 06 bd 2c dd d0 3c b6 c4 04 3e
       0.23980944 -0.032793365 0.025496088 0.12965664
000010 b1 9a d2 3c
       0.025708528

mean f4 [2]
000000 ee 4c c9 bd 1d b7 20 3e
       -0.09829126 0.15694852

range f4 [2]
000000 73 2a 22 3e fd 8e 45 3e
       0.15836506 0.19292827
